backend/supervisor/ai_models/p1_actor_envs_2_lam_0_9072109673770274_gamma_0_9748655626322407_t_4773_a_lr_0_0009862160777679757_c_lr_0_0009250117935695386.pth (torch, 209886 bytes, 10 tensors)

model.0.weight f4 [128, 6]
0.2184263 -0.97354937 -0.30849722 -0.3277121 0.9120325 0.39094892 0.07292522 -1.3917681
-0.14676835 -0.5493043 0.75330776 0.5483036 -0.9903246 -0.36765528 -0.36481646 -0.14614984
-1.1564016 -0.6857917 -0.12988858 0.5844374 0.5619511 -0.071819626 -0.46170384 0.9114495
0.031452384 -0.33133897 -0.33043647 0.034781158 -0.46845546 0.5285173 -0.35442406 0.1347313
0.5883549 0.18954088 0.4210636 0.5360705 0.44959578 0.2236913 -0.21549918 -0.95974576
-0.2289546 1.2843956 0.38217822 -0.7732354 0.86178833 -0.13876976 0.142771 -0.9046951
0.17102847 0.11223702 0.5393252 0.48280886 -0.053994264 0.0385737 -0.6240643 -0.3296122
0.17961954 -0.4325387 0.5318038 -1.0703611 -0.80524606 -0.33699694 0.46382788 -0.0630827
0.3605951 0.30627072 -0.26176205 -0.5269398 -0.5454757 0.8696801 -0.13738932 -0.0074780365
0.3862183 0.035642117 -0.7930631 1.2972366 -0.47545195 -1.0164503 0.9657497 -0.27163777
-0.54699314 -0.23173289 1.190357 0.215233 -0.48417696 -0.11263348 -0.22715057 0.124396734
-0.91284525 -0.36953986 0.67177165 0.4663602 0.21018666 -0.45492288 -0.9425786 0.75916153
0.7675288 0.83051777 0.27518675 -1.0011606 -0.057912532 -0.46066633 0.33361036 -0.1528798
1.0410756 -1.1290486 0.2392405 -1.0784569 0.24956135 -1.4970084 0.31782112 0.8837858
0.18791324 0.55126697 -0.18834889 -0.7399483 -0.08143519 -0.437962 0.23051858 -0.11461643
1.143292 0.68771285 1.0208249 0.2738623 0.34617916 1.282212 0.31134832 0.51007444
0.5222087 -1.1936882 -0.47949755 0.017481552 1.0267105 -0.4113407 0.19239196 0.22979178
-0.91730887 -0.43098897 1.0496606 0.8394347 -0.28487083 0.042386767 -0.22547261 -0.16537663
-1.6346607 0.035253875 0.2536442 -0.35295087 -0.008772088 -0.030827109 1.3194195 0.7837427
-0.9209393 1.8654822 -0.17518678 -0.26200497 -0.93222153 0.14136513 0.49478135 0.8870682
0.30347005 0.74462986 -0.46162364 0.031309247 -2.1815355 -0.75189734 0.182104 -0.4012676
0.22742659 -0.76815784 -0.26926297 -0.11119517 -0.3316988 0.13096738 0.36933205 -0.5672769
-0.21639305 0.072687306 0.64411277 -1.2240912 -1.1904589 0.7813499 0.637563 0.68620765
-0.169196 0.16184296 -0.7513513 0.507677 0.7265343 0.07206585 -0.3437169 -0.13095729
0.24977596 -1.8118403 0.38890514 -1.1257901 0.41565636 -0.3139732 -0.8558887 -0.30819792
-0.27016214 0.60090065 0.46543968 0.50388694 0.5041996 -0.43078047 -0.074289754 0.56905043
-0.37820926 0.68185455 1.301447 -0.34362537 -0.26828158 1.0708362 0.20482239 0.3895639
-0.20243745 -0.8921574 1.3136075 -0.53223926 -0.55482167 1.2042848 -1.1196885 0.1625639
0.42043868 -0.9820414 0.3020392 -0.17502357 -0.41004622 0.0257113 0.8729557 0.065568365
-0.009609342 0.33923066 -0.4225679 0.5942857 0.2768264 0.02502917 0.2315532 -0.45069942
-0.19963229 0.74424404 0.34589565 -0.23677638 0.47682378 0.019340068 -1.1423453 -1.0562669
-0.44718954 0.11786771 0.51908463 -0.6499841 0.8346995 0.5479512 -0.38865766 1.4407033
00000000: 25ab 5f3e 883a 79bf 59f3 9dbe e1c9 a7be
00000010: f67a 693f 752a c83e d159 953d 7525 b2bf
00000020: 714a 16be 359f 0cbf c7d8 403f a05d 0c3f
00000030: ea85 7dbf 503d bcbe 39c9 babe 4ea8 15be
00000040: f804 94bf 0b90 2fbf 8301 05be b09d 153f
00000050: 07dc 0f3f 2b16 93bd 7264 ecbe c154 693f
00000060: 37d4 003d 43a5 a9be f82e a9be b076 0e3d
00000070: 65d9 efbe e94c 073f 1277 b5be 00f7 093e
00000080: 6d9e 163f 0117 423e a695 d73e eb3b 093f
00000090: 6b31 e63e 550f 653e d1ab 5cbe e6b1 75bf
000000a0: 1373 6abe 1367 a43f ddac c33e c1f2 45bf
000000b0: 299e 5c3f a919 0ebe 9032 123e 199a 67bf
000000c0: 1622 2f3e 86dc e53d 3711 0a3f b932 f73e
000000d0: 1729 5dbd 75ff 1d3d aec2 1fbf eec2 a8be
000000e0: 2fee 373e b675 ddbe 4b24 083f 9801 89bf
000000f0: 9b24 4ebf dd8a acbe d97a ed3e 8131 81bd
00000100: ec9f b83e 84cf 9c3e ad05 86be 87e5 06bf
00000110: 4ca4 0bbf 5ba3 5e3f c9af 0cbe 510a f5bb
00000120: 68be c53e 78fd 113d 2f06 4bbf d90b a63f
00000130: 706e f3be 0b1b 82bf 5f3b 773f 1b14 8bbe
00000140: be07 0cbf 634b 6dbe 9e5d 983f 0a66 5c3e
00000150: 0be6 f7be 62ac e6bd 299a 68be b7c3 fe3d
00000160: 3ab0 69bf 5434 bdbe 3af9 2b3f c4c6 ee3e
00000170: 2c3b 573e a7eb e8be d54c 71bf 6958 423f
00000180: c47c 443f d09c 543f 47e5 8c3e 0826 80bf
00000190: b135 6dbd 75dc ebbe face aa3e 868c 1cbe
000001a0: f741 853f aa84 90bf 76fb 743e e00a 8abf
000001b0: 038d 7f3e f99d bfbf 73b9 a23e c93f 623f
000001c0: 546c 403e d51f 0d3f 88de 40be 406d 3dbf
000001d0: 7ec7 a6bd 8e3c e0be 100d 6c3e 05bc eabd
000001e0: 6457 923f f30d 303f 64aa 823f ae37 8c3e
000001f0: 653e b13e 861f a43f 0c69 9f3e 3d94 023f
00000200: 78af 053f c6ca 98bf b480 f5be 7935 8f3c
00000210: 406b 833f 409b d2be 6602 453e 894e 6b3e
00000220: c1d4 6abf 96aa dcbe 475b 863f 31e5 563f
00000230: 97da 91be bf9d 2d3d 4be2 66be 7e58 29be
00000240: 903c d1bf 5e66 103d a7dd 813e fab5 b4be
00000250: ceb8 0fbc 2289 fcbc bde2 a83f 5da3 483f
00000260: aec2 6bbf 1fc8 ee3f 2a64 33be 8425 86be
00000270: 12a6 6ebf 05c2 103e fb53 fd3e e716 633f
00000280: 6d60 9b3e 10a0 3e3f ef59 ecbe 203e 003d
00000290: 479e 0bc0 587c 40bf 7979 3a3e f272 cdbe
000002a0: 84e2 683e fea5 44bf d6dc 89be 4bba e3bd
000002b0: 6dd4 a9be 501c 063e 1719 bd3e 0f39 11bf
000002c0: 2496 5dbe 15dd 943d 93e4 243f 05af 9cbf
000002d0: f560 98bf 8c06 483f 5437 233f 4eab 2f3f
000002e0: b741 2dbe 29ba 253e 8f58 40bf 1ff7 013f
000002f0: 27fe 393f 4397 933d a9fb afbe ab19 06be
00000300: 45c5 7f3e 62ea e7bf 931e c73e e419 90bf
00000310: e9d0 d43e 18c1 a0be 861b 5bbf 1ecc 9dbe
00000320: b152 8abe a0d4 193f 1c4e ee3e bcfe 003f
00000330: 3a13 013f 428f dcbe 3a25 98bd 4aad 113f
00000340: a5a4 c1be 058e 2e3f d195 a63f aaef afbe
00000350: 345c 89be 2911 893f f6bc 513e eb74 c73e
00000360: c34b 4fbe 6d64 64bf 4a24 a83f d540 08bf
00000370: cb08 0ebf 0126 9a3f f451 8fbf 2777 263e
00000380: bd43 d73e 1167 7bbf e2a4 9a3e 6139 33be
00000390: 94f1 d1be 81a0 d23c 067a 5f3f b548 863d
000003a0: 8070 1dbc a4af ad3e d25a d8be 1c23 183f
000003b0: 31bc 8d3e f909 cd3c 481c 6d3e 13c2 e6be
000003c0: 686c 4cbe c786 3e3f 3c19 b13e 8275 72be
000003d0: 3f22 f43e 106f 9e3c 5f38 92bf c133 87bf
000003e0: 07f6 e4be a064 f13d bbe2 043f 5c65 26bf
000003f0: deae 553f 8846 0c3f 23fe c6be f768 b83f

model.0.bias f4 [128]
0.01 0.01 0.01 0.11262534 0.01 0.04648137 0.09495273 0.09628857
-0.052083414 0.01 0.01 -0.012668088 0.14385384 0.11597241 0.01 0.0940607
0.12379133 -0.025907006 0.029450132 0.01 0.11582325 0.11130426 0.14823724 0.12505892
0.01 0.13631755 0.07500457 0.01 0.01 -0.012586935 0.04672003 -0.022138497
0.01 0.0062931865 0.038714476 0.13080105 0.07082576 0.0074676345 0.079515874 -0.11118335
0.11396312 0.01 0.14518753 0.0011915037 0.01 0.050762568 0.12505442 0.11853432
0.10998773 0.01 0.13840444 0.01 0.01 -0.04411276 0.09496052 0.01
0.12723714 0.09931629 0.0892484 0.13215844 0.14518838 -0.0006362323 -0.04556576 -0.017206626
0.14160462 0.01 0.047409635 0.09217618 0.01 0.123610176 0.11169689 0.07774952
0.042891026 0.08035154 -0.0058323913 0.01 0.11430741 0.11671556 0.01 0.122257605
0.1433409 0.01 0.1126922 0.003029673 0.13934825 0.11503171 -0.04418215 0.11842105
-0.0049606855 0.13305774 0.10908941 0.13193417 0.12893914 0.13942802 0.13875511 0.114559904
0.1281709 0.056152362 0.14535676 0.01 0.13805452 0.037017185 0.040937845 0.01
0.120376475 0.12359995 0.107879974 0.118458346 0.01 0.09955851 0.008286051 0.07559317
0.06444511 0.0704871 0.08442944 0.077397294 0.12608698 0.047118988 0.08312219 0.01
0.14329481 0.087861545 0.14212395 0.01 0.008459954 0.12895611 0.104129195 0.12877753
00000000: 0ad7 233c 0ad7 233c 0ad7 233c 1da8 e63d
00000010: 0ad7 233c 4063 3e3d 9476 c23d f132 c53d
00000020: 6b55 55bd 0ad7 233c 0ad7 233c d08d 4fbc
00000030: 6c4e 133e f182 ed3d 0ad7 233c e5a2 c03d
00000040: 4f86 fd3d ee3a d4bc 6741 f13c 0ad7 233c
00000050: bd34 ed3d 7df3 e33d 81cb 173e 720f 003e
00000060: 0ad7 233c d496 0b3e ff9b 993d 0ad7 233c
00000070: 0ad7 233c 6f39 4ebc 815d 3f3d cb5b b5bc
00000080: 0ad7 233c 1337 ce3b 1293 1e3d b6f0 053e
00000090: 190d 913d 0fb3 f43b 38d9 a23d 19b4 e3bd
000000a0: 7f65 e93d 0ad7 233c 0aac 143e 3b2c 9c3a
000000b0: 0ad7 233c 69ec 4f3d 440e 003e 1fc2 f23d
000000c0: 3f41 e13d 0ad7 233c e5b9 0d3e 0ad7 233c
000000d0: 0ad7 233c 95af 34bd a97a c23d 0ad7 233c
000000e0: 744a 023e 5766 cb3d ddc7 b63d 8b54 073e
000000f0: 43ac 143e d4c8 26ba 2aa3 3abd e9f4 8cbc
00000100: cd00 113e 0ad7 233c 9b30 423d ddc6 bc3d
00000110: 0ad7 233c 5527 fd3d 57c1 e43d 243b 9f3d
00000120: 80ae 2f3d 598f a43d a51d bfbb 0ad7 233c
00000130: 011a ea3d 9108 ef3d 0ad7 233c 3262 fa3d
00000140: f5c7 123e 0ad7 233c 2bcb e63d 7a8d 463b
00000150: 4fb1 0e3e bf95 eb3d 58f8 34bd bc86 f23d
00000160: 3f8d a2bb 4a40 083e 456a df3d c019 073e
00000170: 9f08 043e 38c6 0e3e d215 0e3e 629e ea3d
00000180: 3b3f 033e 0500 663d 67d8 143e 0ad7 233c
00000190: 2a5e 0d3e 559f 173d 71ae 273d 0ad7 233c
000001a0: f187 f63d f821 fd3d 2df0 dc3d 4a9a f23d
000001b0: 0ad7 233c 55e5 cb3d 38c2 073c 98d0 9a3d
000001c0: ccfb 833d 8a5b 903d 58e9 ac3d 7982 9e3d
000001d0: f21c 013e d7ff 403d f73b aa3d 0ad7 233c
000001e0: e0bb 123e c1f0 b33d f188 113e 0ad7 233c
000001f0: 9e9b 0a3c 120d 043e b041 d53d 42de 033e

model.2.weight f4 [128, 128]
-0.13537689 0.032121245 0.0427102 -0.03835197 0.07680435 0.06948904 -0.09704282 -0.1641136
0.098738305 0.10860836 -0.024217652 0.3825508 0.05585726 0.0936084 -0.038130626 -0.16545065
0.074110895 -0.09693564 0.064405575 0.042851046 -0.04633875 0.02509814 0.18538687 0.18028718
0.15463124 0.010973636 0.274509 0.18809633 -0.005917807 -0.19376226 0.1311842 -0.21993071
-0.049213 -0.0006092073 0.08181984 0.0034987302 -0.027151177 -0.23595338 0.039933957 0.1547677
0.10728459 -0.077274285 0.1110721 -0.0711017 0.008509423 0.16021794 0.06011572 0.02623688
0.09754138 0.35225332 -0.16944963 0.017991541 0.090384915 -0.08021749 -0.1006273 0.106201194
0.0650621 0.09594823 -0.029193614 0.110940464 0.059040803 0.07682489 -0.0019101185 -0.051886342
-0.0764173 0.03919078 -0.13069986 0.20944425 -0.006294762 0.16348772 -0.09751237 -0.054281916
-0.1954492 0.12108861 0.20304279 0.03863766 -0.10230887 0.24443118 0.032199595 -0.028175961
-0.0013462345 0.10656609 0.0040166033 -0.08043779 -0.05103392 -0.123627424 -0.06283935 0.12696962
-0.42819345 -0.2576276 -0.0035212552 -0.013043432 0.12776686 -0.08981628 0.128756 -0.095800176
0.08352174 -0.27309027 -0.21543713 -0.04771506 -0.13047177 0.16375844 -0.12188741 -0.007803101
-0.05134863 -0.0010825587 0.13983704 -0.07546084 0.20603745 -0.047560126 0.16503997 -0.21492782
0.15796675 -0.07477852 -0.054785922 -0.014465814 0.058668442 -0.10981595 0.05080498 -0.068126574
-0.22699992 -0.07234719 -0.04721347 -0.013024372 -0.17291512 -0.1093252 0.022711277 -0.08688301
0.014464352 0.1876278 0.071474135 -0.00084891357 0.118571885 0.04214838 0.1324639 0.066267416
-0.0867375 -0.14262784 -0.11680921 -0.21584156 0.002257 0.11492757 -0.06328078 0.1984042
0.11386805 0.06526322 -0.13899681 0.11851634 -0.057085797 0.2051595 0.06620616 0.19241957
0.0090580555 0.06588642 -0.06697366 -0.09776981 0.13684016 -0.011788075 -0.033844847 -0.016135626
-0.10342923 0.07805487 0.13972083 0.15057506 0.064729996 -0.1560367 -0.2091217 0.13436326
0.18342744 0.08805903 0.071582146 -0.10940752 0.027186057 0.012321311 0.07605394 0.4035021
0.12803458 0.09246845 0.07957309 0.22743629 -0.022658773 -0.21335658 0.014776808 0.016383026
0.1543305 0.065956905 0.12467284 0.19621743 -0.045947187 -0.17235424 -0.05897587 -0.0846653
0.07133875 -0.0062980535 -0.0016142615 -0.020330532 0.106702946 0.14574711 -0.2658688 0.051254064
0.021095455 -0.19119537 -0.1369671 -0.07820449 0.12879881 0.17003678 0.25469992 0.13016847
0.09431198 0.17717862 0.16999608 -0.20793502 0.295366 0.013288653 -0.33325875 0.22030583
0.20249166 0.309074 0.25243264 0.23611717 0.1005992 0.18394761 0.19982584 0.03748941
0.17034268 -0.14455791 0.022793418 -0.14544824 0.07251272 0.05826139 0.19467941 0.042397182
0.05420488 0.15371789 0.09829032 0.2680624 -0.2726752 0.12071151 -0.25515878 -0.1460791
0.12708399 -0.3170254 -0.0031604809 0.10057578 0.22071779 -0.11211897 -0.06250823 -0.12576662
-0.06360245 0.019828442 0.08773597 -0.14542733 -0.24723949 0.013823853 0.1466749 0.16136964
00000000: 3da0 0abe 9191 033d e4f0 2e3d f516 1dbd
00000010: 994b 9d3d 4550 8e3d 63be c6bd 650d 28be
00000020: 4f37 ca3d 0f6e de3d 1964 c6bc b3dd c33e
00000030: 95ca 643d c3b5 bf3d dc2e 1cbd e56b 29be
00000040: 74c7 973d 3186 c6bd 12e7 833d 9484 2f3d
00000050: b3cd 3dbd 9d9a cd3c 0ed6 3d3e 349d 383e
00000060: a757 1e3e c4ca 333c 728c 8c3e 539c 403e
00000070: 2aea c1bb 9d69 46be 2755 063e 8435 61be
00000080: 9293 49bd 36b3 1fba 2991 a73d f44a 653b
00000090: 256c debc c39d 71be ca91 233d 6d7b 1e3e
000000a0: 06b8 db3d fb41 9ebd c579 e33d c59d 91bd
000000b0: 1b6b 0b3c 2c10 243e e73b 763d baee d63c
000000c0: c6c3 c73d 8c5a b43e 3484 2dbe ff62 933c
000000d0: ba1b b93d 1149 a4bd b015 cebd 0380 d93d
000000e0: 473f 853d 8180 c43d 7227 efbc c134 e33d
000000f0: c5d4 713d 5e56 9d3d f15c faba c686 54bd
00000100: ac80 9cbd 8386 203d 2fd6 05be 8e78 563e
00000110: 4a44 cebb 5369 273e 91b4 c7bd b756 5ebd
00000120: d623 48be 4efd f73d 73ea 4f3e 8642 1e3d
00000130: 5087 d1bd 2b4c 7a3e b9e3 033d 46d1 e6bc
00000140: 2274 b0ba 523f da3d b69d 833b 91bc a4bd
00000150: f208 51bd 6030 fdbd ebb1 80bd 5304 023e
00000160: 2c3c dbbe c4e7 83be dcc4 66bb 1eb4 55bc
00000170: 51d5 023e 99f1 b7bd 9dd8 033e e232 c4bd
00000180: 720d ab3d 7dd2 8bbe 8d9b 5cbe de70 43bd
00000190: 649a 05be 4bb0 273e 1ba0 f9bd 28b1 ffbb
000001a0: f152 52bd a4e4 8dba 7131 0f3e 368b 9abd
000001b0: 7bfb 523e 68ce 42bd 3d00 293e 0a16 5cbe
000001c0: 09c2 213e 7b25 99bd 3467 60bd 0602 6dbc
000001d0: 524e 703d 2fe7 e0bd e218 503d f285 8bbd
000001e0: ab72 68be c32a 94bd e962 41bd 2d64 55bc
000001f0: a910 31be e4e5 dfbd 000d ba3c b8ef b1bd
00000200: e4fb 6c3c 8121 403e 0861 923d a089 5eba
00000210: d1d5 f23d c8a3 2c3d 9ea4 073e 36b7 873d
00000220: 6ea3 b1bd 080d 12be ab39 efbd 9205 5dbe
00000230: 2dea 133b 255f eb3d 5b99 81bd 782a 4b3e
00000240: a733 e93d b9a8 853d 2e55 0ebe b2b8 f23d
00000250: ccd2 69bd 5515 523e 1897 873d a309 453e
00000260: 3d68 143c 76ef 863d 7c29 89bd 8a3b c8bd
00000270: d41f 0c3e c522 41bc e5a0 0abd dc2e 84bc
00000280: b4d2 d3bd 3bdb 9f3d fa12 0f3e 5930 1a3e
00000290: 2991 843d 16c8 1fbe 0024 56be 8696 093e
000002a0: 67d4 3b3e 4b58 b43d a999 923d 0d11 e0bd
000002b0: 4bb5 de3c 53df 493c 2bc2 9b3d d497 ce3e
000002c0: 7f1b 033e 1960 bd3d 37f7 a23d 0fe5 683e
000002d0: e49e b9bc 267a 5abe 6d1a 723c b235 863c
000002e0: d108 1e3e 6a14 873d 7954 ff3d 39ed 483e
000002f0: 1e33 3cbd a17d 30be af90 71bd 0065 adbd
00000300: 0d1a 923d e75f cebb a195 d3ba 378c a6bc
00000310: 1387 da3d bb3e 153e f51f 88be c8ef 513d
00000320: 60d0 ac3c b8c8 43be 1a41 0cbe ad29 a0bd
00000330: d6e3 033e 1f1e 2e3e 0768 823e e24a 053e
00000340: a426 c13d 506e 353e 7413 2e3e ebec 54be
00000350: 363a 973e a7b8 593c e4a0 aabe da97 613e
00000360: f959 4f3e f33e 9e3e da3e 813e b3c8 713e
00000370: f406 ce3d c35c 3c3e 259f 4c3e 7f8e 193d
00000380: 506e 2e3e fd06 14be 43b9 ba3c 62f0 14be
00000390: 8d81 943d 7fa3 6e3d 0a5a 473e aba8 2d3d
000003a0: f005 5e3d 3968 1d3e 6f4c c93d 7a3f 893e
000003b0: 159c 8bbe 9937 f73d 2ca4 82be c295 15be
000003c0: 4e22 023e 2751 a2be 1220 4fbb adfa cd3d
000003d0: d803 623e a19e e5bd 5104 80bd f7c8 00be
000003e0: 0042 82bd 426f a23c ebae b33d e7ea 14be
000003f0: 592c 7dbe 717d 623c f231 163e 153e 253e

model.2.bias f4 [128]
0.0021957473 0.112711616 0.030689942 0.024014728 0.021691592 0.11371047 0.004077703 0.01
0.10886049 0.032145493 0.010343411 0.002667443 0.0021531906 0.00054490013 0.01 0.025150532
0.0039939852 -0.006477165 0.12416778 0.13428077 0.060551196 0.13218476 0.01 0.01
0.004078059 0.01 0.108365096 0.01 0.11515795 0.004262522 -0.0060012294 0.12006615
0.14509772 0.02945642 0.025965156 0.02218887 0.01 0.01 0.118015535 0.01
0.005000888 0.032108564 0.01 0.07045824 0.018668676 0.0023065256 0.01 0.1439235
0.13013664 0.020633643 0.01 0.13713644 0.01 0.030756062 0.043104768 0.01
0.009218116 -0.010474507 0.10574358 0.12363552 0.01 0.12398832 -0.0053253775 -0.010519675
0.12297578 0.01 0.0064975605 0.10860314 0.01 0.019760052 0.10919083 0.01
0.025189277 0.13730396 0.11919352 0.023057492 0.12776819 0.0947197 0.02536041 0.11002069
0.12052378 0.090874724 -0.0075621046 0.0062989527 0.119710565 0.002905229 0.117946535 -0.007082656
0.13402626 0.029675808 0.13916019 0.09466457 0.1127071 0.0030175373 0.01 0.1100811
0.115600556 -0.009439238 0.0031799786 0.012398683 0.01 0.12806949 0.005457394 0.10479081
0.11739133 0.10370962 0.1127676 0.020028777 0.01 -0.007997263 -0.0073284777 0.04422432
0.085888594 -0.006134704 0.13465413 0.111698374 0.13197264 0.10103717 0.0041098315 -0.0039597093
0.04695801 0.0034123352 0.08426753 0.0042788424 0.12020795 0.097062334 0.028099902 0.005628421
00000000: 87e6 0f3b 59d5 e63d 7969 fb3c 89ba c43c
00000010: 91b2 b13c 09e1 e83d 419e 853b 0ad7 233c
00000020: 40f2 de3d feaa 033d 6977 293c 44d0 2e3b
00000030: 8b1c 0d3b a1d7 0e3a 0ad7 233c 7d08 ce3c
00000040: fadf 823b 663e d4bb ad4b fe3d e680 093e
00000050: 8804 783d 715b 073e 0ad7 233c 0ad7 233c
00000060: 3da1 853b 0ad7 233c 85ee dd3d 0ad7 233c
00000070: eed7 eb3d a0ac 8b3b f6a5 c4bb 3ee5 f53d
00000080: 7f94 143e 974e f13c e1b4 d43c 6fc5 b53c
00000090: 0ad7 233c 0ad7 233c 21b2 f13d 0ad7 233c
000000a0: 7dde a33b 4584 033d 0ad7 233c 694c 903d
000000b0: 0def 983c 1429 173b 0ad7 233c af60 133e
000000c0: 8a42 053e e307 a93c 0ad7 233c 7f6d 0c3e
000000d0: 0ad7 233c 23f4 fb3c a08e 303d 0ad7 233c
000000e0: 9507 173c 449d 2bbc 1790 d83d 9f34 fd3d
000000f0: 0ad7 233c 97ed fd3d 8180 aebb b75a 2cbc
00000100: bada fb3d 0ad7 233c 7de9 d43b 536b de3d
00000110: 0ad7 233c d5df a13c 719f df3d 0ad7 233c
00000120: be59 ce3c 6999 0c3e bb1b f43d 11e3 bc3c
00000130: aad5 023e 67fc c13d a2c0 cf3c 8752 e13d
00000140: 2cd5 f63d 871c ba3d 88cb f7bb 7267 ce3b
00000150: d02a f53d a865 3e3b f48d f13d a015 e8bb
00000160: 2e3e 093e ae1a f33c 0280 0e3e 80df c13d
00000170: fbd2 e63d e0c1 453b 0ad7 233c 3372 e13d
00000180: fcbf ec3d 09a7 1abc 3067 503b d823 4b3c
00000190: 0ad7 233c a624 033e f0d3 b23b 909c d63d
000001a0: de6a f03d b665 d43d b3f2 e63d 6413 a43c
000001b0: 0ad7 233c f406 03bc ba23 f0bb 9024 353d
000001c0: 5ce6 af3d a105 c9bb c6e2 093e 1ec2 e43d
000001d0: d623 073e 93ec ce3d c4ab 863b 73c0 81bb
000001e0: 0b57 403d 7ca1 5f3b 7494 ac3d 8835 8c3b
000001f0: 962f f63d 9ec8 c63d c431 e63c 9e6e b83b

model.4.weight f4 [128, 128]
0.047432244 -0.0481317 -0.051744044 0.15504023 -0.12382136 0.005156561 0.018163173 0.018618302
0.064300336 -0.16294672 -0.011151389 -0.011609294 0.16913567 -0.06850774 0.13896269 -0.034885153
-0.094358586 0.030208362 0.25338525 -0.11481756 0.102763906 -0.07882265 -0.12071042 -0.057101518
0.037820186 0.037246566 0.045473017 -0.039471988 0.056999803 0.124534845 0.049160276 0.039135586
-0.17686214 -0.019215547 0.15954936 0.0134868175 0.06086855 -0.20912044 -0.11844871 0.038620044
0.1371137 0.025305742 -0.3025197 0.05093633 -0.011306823 -0.15730084 0.02877206 -0.04010643
0.10003306 0.090748645 0.05939599 -0.19560729 -0.1789722 -0.10147234 0.04328048 0.11803099
-0.10576652 0.03940698 -0.082468815 0.17677997 -0.17676131 0.023274355 -0.032748725 0.10362813
-0.08335268 -0.09512947 -0.11312464 -0.07830232 -0.07054869 0.068016164 0.15706559 0.003616328
0.10922262 -0.03646583 0.038941402 -0.061990853 -0.025322128 -0.20597427 -0.031041913 -0.04294256
-0.101103924 -0.081772454 -0.10736744 -0.048945285 -0.053609066 -0.11708441 0.0663622 -0.06630397
0.016943991 0.12823386 -0.119218096 0.052978884 -0.0011549442 -0.09949805 0.1253748 -0.20194574
0.068459064 0.046914183 -0.23450537 -0.18833378 0.18348306 -0.19930696 -0.18373944 -0.04906341
-0.04610324 -0.02821286 0.113225356 -0.019272014 -0.057819672 0.011883582 -0.08487173 0.008664947
-0.0901033 0.14623249 -0.09304783 0.029401645 -0.10376225 0.028839914 -0.18371895 0.03522141
0.01766049 -0.045048732 -0.10575838 -0.00069417385 -0.22013362 0.03676731 -0.24145195 -0.123243935
0.09225283 -0.21138471 0.27848232 -0.15493447 -0.10799053 0.006582887 -0.11789883 0.07914545
-0.026530158 -0.09273568 0.085754104 -0.017487273 0.12153942 0.18352608 0.16073218 0.041070674
0.18037686 -0.24193977 -0.10492687 -0.017207911 -0.07491394 0.22595231 -0.16134019 -0.022260644
-0.11972026 -0.050299264 0.124637045 -0.057776384 -0.17335242 0.021341406 0.08502718 -0.004380801
0.06339006 -0.060557675 0.14699574 0.027984908 0.018850645 0.11689866 -0.2700509 0.0040984666
-0.07655965 -0.06893391 -0.0426555 0.060811505 0.18491629 -0.07319729 -0.41246748 -0.0049020518
0.18473367 0.24953195 -0.024563933 -0.012157448 -0.090976685 0.26053298 -0.08126461 0.03742484
-0.05596016 -0.061189435 0.043236993 0.16410427 -0.04489034 -0.06565244 -0.073395215 -0.10450352
0.06921481 0.22912274 0.0039833556 -0.11704788 -0.19782153 0.14772995 -0.16799167 0.122879855
0.29077733 -0.3264082 0.19133373 0.17113374 -0.174135 0.1433886 0.034427274 0.060402367
-0.017341435 -0.115852885 -0.21617289 -0.32024282 -0.10879303 -0.07833084 0.1965296 -0.34954825
-0.2105545 0.009219452 -0.0834541 0.01538992 0.09958014 -0.03515503 -0.12333811 -0.039501853
-0.069873355 0.1262 0.010652959 0.16122983 0.024587756 -0.12163858 -0.1299318 0.09272178
-0.015417095 -0.11355379 -0.23235646 -0.09744078 0.10417014 0.058262598 -0.0606909 -0.051355097
-0.08617581 -0.13483448 0.010455166 -0.026234701 0.13486812 -0.13510641 0.021766387 -0.058123607
0.24475686 -0.074783415 -0.09669083 -0.023248175 -0.05768131 0.00029049572 -0.045343507 0.081612065
00000000: 5048 423d bf25 45bd 90f1 53bd dec2 1e3e
00000010: 0e96 fdbd 5ef8 a83b efca 943c 6985 983c
00000020: e5af 833d 81db 26be 51b4 36bc e934 3ebc
00000030: e731 2d3e c94d 8cbd 3c4c 0e3e bce3 0ebd
00000040: 133f c1bd 8777 f73c b6bb 813e 7825 ebbd
00000050: e275 d23d c56d a1bd 0637 f7bd 48e3 69bd
00000060: 57e9 1a3d db8f 183d ea41 3a3d 61ad 21bd
00000070: a078 693d 200c ff3d 495c 493d a34c 203d
00000080: 591b 35be ec69 9dbc e860 233e d0f7 5c3c
00000090: 4d51 793d ab23 56be 3d95 f2bd 0d30 1e3d
000000a0: 8967 0c3e fd4d cf3c dde3 9abe 9da2 503d
000000b0: 4140 39bc 7913 21be 62b3 eb3c a446 24bd
000000c0: 22de cc3d 6dda b93d 3649 733d 474d 48be
000000d0: 7d44 37be bbd0 cfbd df46 313d 3bba f13d
000000e0: 1e9c d8bd 3769 213d 69e5 a8bd cf05 353e
000000f0: eb00 35be dca9 be3c 8723 06bd fc3a d43d
00000100: cfb4 aabd 3dd3 c2bd e4ad e7bd f75c a0bd
00000110: d57b 90bd 0f4c 8b3d cdd5 203e eaff 6c3b
00000120: 1cb0 df3d 325d 15bd 0581 1f3d 1fea 7dbd
00000130: 5a70 cfbc ebea 52be 9c4b febc 8ae4 2fbd
00000140: 930f cfbd 5178 a7bd 76e3 dbbd da7a 48bd
00000150: 2e95 5bbd f3c9 efbd e8e8 873d 60ca 87bd
00000160: 20ce 8a3c bd4f 033e 9e28 f4bd 6300 593d
00000170: 7f61 97ba a2c5 cbbd 4062 003e ddca 4ebe
00000180: 4434 8c3d 1629 403d 2d22 70be 92da 40be
00000190: fce2 3b3e 2017 4cbe 3126 3cbe b7f6 48bd
000001a0: c0d6 3cbd a81e e7bc b2e2 e73d 58e0 9dbc
000001b0: 52d4 6cbd 5bb3 423c 3bd1 adbd 6cf7 0d3c
000001c0: 1488 b8bd f8bd 153e dc8f bebd b8db f03c
000001d0: 4d81 d4bd af41 ec3c d220 3cbe 5344 103d
000001e0: bbac 903c 0585 38bd d997 d8bd 38f9 35ba
000001f0: b56a 61be 5299 163d 2e3f 77be 5167 fcbd
00000200: 0def bc3d 3c75 58be 3c95 8e3e 24a7 1ebe
00000210: 242a ddbd 42b5 d73b f174 f1bd 0217 a23d
00000220: c655 d9bc 34ec bdbd d99f af3d 7841 8fbc
00000230: a9e9 f83d 43ee 3b3e fa96 243e b939 283d
00000240: b6b4 383e 0fbf 77be e6e3 d6bd 9bf7 8cbc
00000250: 7b6c 99bd 0b60 673e 5d36 25be f45b b6bc
00000260: e52f f5bd 9a06 4ebd b541 ff3d eea6 6cbd
00000270: 4c83 31be 2cd4 ae3c bb22 ae3d d38c 8fbb
00000280: a6d2 813d 530b 78bd 0d86 163e 9b40 e53c
00000290: ab6c 9a3c 9168 ef3d 1d44 8abe 6e4c 863b
000002a0: 4ecb 9cbd 392d 8dbd 89b7 2ebd 7c15 793d
000002b0: b25a 3d3e 76e8 95bd f02e d3be 64a1 a0bb
000002c0: d32a 3d3e 4e85 7f3e 4d3a c9bc 0830 47bc
000002d0: fc51 babd 9464 853e 0f6e a6bd ca4a 193d
000002e0: 7b36 65bd c6a1 7abd 4619 313d f30a 283e
000002f0: efde 37bd c974 86bd 3b50 96bd f105 d6bd
00000300: 7fc0 8d3d 279f 6a3e cf86 823b cdb6 efbd
00000310: ba91 4abe 8546 173e 0206 2cbe 6fa8 fb3d
00000320: c4e0 943e fa1e a7be fdec 433e af3d 2f3e
00000330: 7250 32be 76d4 123e 9d03 0d3d 7968 773d
00000340: a00f 8ebc 4744 edbd 6d5c 5dbe def6 a3be
00000350: e1ce debd eb6b a0bd 0e3f 493e fdf7 b2be
00000360: 999b 57be 2f0d 173c fce9 aabd 0126 7c3c
00000370: acf0 cb3d b9fe 0fbd b198 fcbd b2cc 21bd
00000380: c319 8fbd 933a 013e c089 2e3c 6f19 253e
00000390: 436c c93c a61d f9bd d70c 05be ebe4 bd3d
000003a0: fc97 7cbc e48e e8bd daee 6dbe 088f c7bd
000003b0: 2857 d53d c3a4 6e3d 0597 78bd b959 52bd
000003c0: f17c b0bd 0d12 0abe 254c 2b3c 28ea d6bc
000003d0: de1a 0a3e 5659 0abe 6c4f b23c 0513 6ebd
000003e0: 8ba1 7a3e 0c28 99bd d805 c6bd f572 bebc
000003f0: 3d43 6cbd ad4d 9839 1dba 39bd 3a24 a73d

model.4.bias f4 [128]
0.01 -0.0064933407 -0.0076151825 0.12312453 0.024239393 0.01 0.09235648 0.12711601
0.038993303 0.08788264 0.0868521 0.00699084 0.07497294 -0.0013136734 0.094692245 -0.0010549964
0.043082 0.10040666 0.036689658 0.124510325 0.10720859 0.059014235 0.01 0.12438172
0.077290714 0.104201496 0.034909558 0.028900815 0.020353798 0.01 0.047192413 0.01
0.033347845 0.009284156 0.01 0.13124554 0.01 0.12777317 0.01 0.031440776
0.018351132 0.097957306 0.13790365 0.01 0.12575993 0.10290648 0.08685828 0.13274017
0.0016468582 0.01 0.12330562 0.12029208 0.11388443 0.10332467 0.08468045 0.039669693
-0.0020937286 0.006522316 0.027057817 0.048735194 0.08031951 -0.002286863 0.01 0.12584816
0.09530501 0.00011984936 0.03453334 0.093500875 0.01 0.01 0.023666598 0.0007008986
0.015418216 0.11339788 0.01 0.047296077 -0.00056333985 0.13048826 0.01 -0.013155678
0.01 0.031694584 0.09804425 0.13566686 0.09640575 0.099940576 0.109472714 0.057227824
0.0024797518 0.017275816 0.09873448 0.10380545 0.0196992 -0.0018812862 0.003883601 0.0077449293
0.10424246 0.01 0.03343011 0.030922811 0.0038173238 0.072915435 0.01 0.044030547
0.08564439 0.10239258 0.05202536 0.10072921 0.1077066 0.10880088 0.01 0.03372684
0.12212701 0.12630498 0.048014574 0.0803868 0.12898107 0.027157625 0.01 0.0075542848
0.035909314 0.12763068 0.10081143 0.12266621 0.12453506 0.1131191 -0.0038853246 -0.0032965308
00000000: 0ad7 233c 17c6 d4bb c888 f9bb b728 fc3d
00000010: b191 c63c 0ad7 233c 6525 bd3d b32a 023e
00000020: 71b7 1f3d d0fb b33d 84df b13d 6b13 e53b
00000030: 6a8b 993d 912f acba 02ee c13d ce47 8aba
00000040: c076 303d 02a2 cd3d e547 163d 45ff fe3d
00000050: 2d90 db3d e9b8 713d 0ad7 233c d8bb fe3d
00000060: 984a 9e3d 9867 d53d 53fd 0e3d 67c1 ec3c
00000070: 02bd a63c 0ad7 233c d54c 413d 0ad7 233c
00000080: c097 083d 931c 183c 0ad7 233c 3b65 063e
00000090: 0ad7 233c f8d6 023e 0ad7 233c 0bc8 003d
000000a0: 1d55 963c d79d c83d 9d36 0d3e 0ad7 233c
000000b0: 36c7 003e a2c0 d23d c1e2 b13d 0aed 073e
000000c0: 64db d73a 0ad7 233c a887 fc3d b25b f63d
000000d0: 3d3c e93d e29b d33d f26c ad3d b07c 223d
000000e0: f036 09bb 27b9 d53b 5ba8 dd3c 8e9e 473d
000000f0: 8e7e a43d 32df 15bb 0ad7 233c 57de 003e
00000100: 462f c33d a357 fb38 d572 0d3d 637d bf3d
00000110: 0ad7 233c 0ad7 233c 74e0 c13c 82bc 373a
00000120: af9c 7c3c 263d e83d 0ad7 233c 88b9 413d
00000130: 19ad 13ba b79e 053e 0ad7 233c ea8a 57bc
00000140: 0ad7 233c 2ed2 013d 6ccb c83d 41ec 0a3e
00000150: 6170 c53d a5ad cc3d 3b33 e03d b967 6a3d
00000160: 5583 223b 0386 8d3c 4e35 ca3d f497 d43d
00000170: 3760 a13c 7d95 f6ba 0384 7e3b 2dc9 fd3b
00000180: 127d d53d 0ad7 233c 03ee 083d d651 fd3c
00000190: 112c 7a3b b054 953d 0ad7 233c 6059 343d
000001a0: 5366 af3d 33b3 d13d 8b18 553d 1e4b ce3d
000001b0: 4795 dc3d ffd2 de3d 0ad7 233c 2825 0a3d
000001c0: ba1d fa3d 1856 013e eeaa 443d d6a1 a43d
000001d0: 9d13 043e ab79 de3c 0ad7 233c ef89 f73b
000001e0: a515 133d 9eb1 023e 3976 ce3d 6c38 fb3d
000001f0: 3d0c ff3d fdaa e73d eea0 7ebb 9c0a 58bb

model.6.weight f4 [128, 128]
0.035165787 0.09699347 -0.035048507 0.069135964 0.1371466 -0.052343693 0.07443813 0.10781468
-0.015075659 -0.064672135 -0.025678908 -0.0224536 0.0647048 0.029265223 0.38949105 0.003971207
-0.19245899 0.19574559 -0.037326314 0.0660465 0.13051605 0.25097656 0.3450896 0.073525384
0.16876824 0.36925477 -0.11807197 -0.039583113 -0.05011255 0.055370543 -0.18976115 0.22572497
-0.087406255 -0.1743159 0.12281833 0.24639441 0.22916497 0.12738216 -0.2068317 0.083472
-0.31359613 0.12798065 0.061833918 0.07959749 0.3271485 -0.0037084136 0.039783344 0.026949124
-0.105240665 0.0228165 0.16013977 0.29514796 0.22722065 0.21521263 0.08040453 0.13067128
-0.06972236 -0.031648673 -0.11289418 -0.09333288 0.25782079 0.1219043 -0.11778237 0.09289042
0.32309896 -0.015753243 -0.04431463 0.255905 0.1763196 0.10979181 0.03724358 0.019083226
0.0091550695 0.17503648 0.08134651 0.1884829 0.07709751 0.0155596 -0.24660292 0.07727918
0.08473035 -0.21700482 0.1750279 0.26360625 0.25482142 0.1625267 0.28997758 0.1580333
-0.09349152 -0.08198832 -0.060742315 0.027075442 -0.20782264 0.043958746 0.041839715 0.31522328
0.025541445 0.29319447 -0.222268 -0.4593876 -0.17879653 -0.29281595 -0.10934237 -0.2472972
0.13535152 0.16281283 0.017707827 -0.04585268 0.24743278 0.2795092 0.1619528 0.12993643
0.2636339 0.33027026 -0.302265 0.14200874 0.07780796 -0.19952525 0.023606732 -0.032040536
0.08543207 -0.045735862 -0.09297316 -0.118181095 0.12869605 0.01120548 0.19284892 -0.08576397
-0.37001878 -0.16724151 -0.0012357237 0.100082286 -0.08778218 -0.052376267 0.18902157 0.110583596
0.0026196027 -0.105146475 0.30014193 0.04279142 0.35567898 0.06266946 0.11708231 -0.12600625
-0.10545094 0.057108138 -0.032442424 -0.05722915 -0.059330337 0.07974822 -0.092925414 0.22551474
0.06498147 0.16588065 -0.22859502 0.111688614 -0.12306812 0.0833951 0.03339144 0.03194976
-0.05672562 -0.05808815 0.08259121 0.32183895 -0.07031267 0.22965619 -0.13165924 -0.13786979
-0.21892707 0.13109367 0.18301775 -0.12780443 0.28543225 0.2933359 0.2909494 0.124244645
0.02692289 -0.010175675 0.12883617 0.06293659 -0.10372955 -0.0368825 -0.00906128 -0.08793123
0.0683517 -0.070687674 0.10490341 -0.011103671 -0.02084944 -0.09036973 0.13928148 0.24995854
0.2931918 0.08507637 -0.08213503 0.07601602 0.13822691 -0.1259626 -0.11260098 0.024917923
0.042058516 0.020464877 -0.048018828 0.0067410134 -0.113298744 0.25513464 -0.048574276 0.16601743
0.055378288 0.03082273 0.005890959 0.33562976 0.36619827 0.15976807 0.21498333 0.10876415
0.20405893 -0.040603533 0.32674378 0.1463023 -0.19791707 0.12559807 -0.015370758 -0.15160987
0.03196235 0.0821329 -0.11235805 -0.075357616 0.064271286 0.018564977 0.09822568 -0.019409005
0.21354839 0.026418893 -0.1321597 0.2946991 0.39369133 0.23022135 -0.106907375 -0.17173636
0.2529041 0.28821415 -0.088005796 0.1798047 0.20581093 -0.32870778 0.08153453 0.025943814
-0.006429073 0.37916762 0.22959541 0.21869373 0.23661073 0.16741282 -0.10267096 0.076839924
00000000: 000a 103d 83a4 c63d 068f 0fbd 2897 8d3d
00000010: 2970 0c3e 5766 56bd 0573 983d f1cd dc3d
00000020: e6ff 76bc d372 84bd 935c d2bc 9df0 b7bc
00000030: f383 843d 9fbd ef3c 5f6b c73e e620 823b
00000040: f813 45be 8871 483e 7ae3 18bd 6343 873d
00000050: 00a6 053e 0080 803e 96af b03e 7a94 963d
00000060: 95d1 2c3e f60e bd3e b8cf f1bd e721 22bd
00000070: d142 4dbd 39cc 623d bf50 42be 7224 673e
00000080: 0d02 b3bd de7f 32be 2d88 fb3d d14e 7c3e
00000090: 39aa 6a3e 7870 023e b0cb 53be 5ef3 aa3d
000000a0: ac8f a0be 5c0d 033e 9045 7d3d 0204 a33d
000000b0: 0280 a73e db08 73bb dcf3 223d 69c4 dc3c
000000c0: 6b88 d7bd abe9 ba3c aefb 233e a21d 973e
000000d0: 88ac 683e b360 5c3e 21ab a43d b1ce 053e
000000e0: 99ca 8ebd 0aa2 01bd 1035 e7bd 4f25 bfbd
000000f0: 1601 843e f6a8 f93d e237 f1bd 553d be3d
00000100: 3a6d a53e f20c 81bc 4283 35bd fb05 833e
00000110: 208d 343e 87da e03d b98c 183d 6d54 9c3c
00000120: 25ff 153c c33c 333e 0099 a63d a901 413e
00000130: 4de5 9d3d b1ed 7e3c 7a85 7cbe 8c44 9e3d
00000140: 1b87 ad3d 8336 5ebe 843a 333e 66f7 863e
00000150: f477 823e 666d 263e f177 943e 7bd3 213e
00000160: 7b78 bfbd 7ee9 a7bd efcc 78bd 51cd dd3c
00000170: 75cf 54be 160e 343d 1f60 2b3d f264 a13e
00000180: 4b3c d13c 961d 963e 399a 63be da34 ebbe
00000190: 7016 37be f9eb 95be e4ee dfbd 7a3b 7dbe
000001a0: 9799 0a3e 68b8 263e 0110 913c 05d0 3bbd
000001b0: 055f 7d3e d41b 8f3e f4d6 253e 0e0e 053e
000001c0: 06fb 863e 2f19 a93e 7ac2 9abe bd6a 113e
000001d0: c859 9f3d 5950 4cbe e862 c13c f03c 03bd
000001e0: 02f7 ae3d 8755 3bbd b668 bebd ee08 f2bd
000001f0: e6c8 033e 3197 373c 307a 453e 05a5 afbd
00000200: 1a73 bdbe 5c41 2bbe 02f8 a1ba f1f7 cc3d
00000210: 25c7 b3bd 7f88 56bd df8e 413e a779 e23d
00000220: a4ad 2b3b 0957 d7bd 34ac 993e 0e46 2f3d
00000230: 8e1b b63e d958 803d dac8 ef3d c807 01be
00000240: aaf6 d7bd 39ea 693d 59e2 04bd 1d69 6abd
00000250: 5e04 73bd 0953 a33d ae4f bebd 56ed 663e
00000260: 0115 853d 9edc 293e d014 6abe 00bd e43d
00000270: 230b fcbd 0dcb aa3d 76c5 083d c0dd 023d
00000280: 2059 68bd d7ed 6dbd 9525 a93d 13c8 a43e
00000290: 1700 90bd fe2a 6b3e aed1 06be bd2d 0dbe
000002a0: 6b2e 60be 6b3d 063e 0169 3b3e 2adf 02be
000002b0: 2d24 923e 2030 963e 52f7 943e fa73 fe3d
000002c0: 658d dc3c e0b7 26bc a1ed 033e e6e4 803d
000002d0: 2970 d4bd 1b12 17bd c375 14bc 4a15 b4bd
000002e0: fafb 8b3d b3c4 90bd 99d7 d63d 2cec 35bc
000002f0: 72cc aabc c413 b9bd ce9f 0e3e 22f5 7f3e
00000300: 3c1d 963e 853c ae3d 6936 a8bd 49ae 9b3d
00000310: 5b8b 0d3e 57fc 00be 589b e6bd ac20 cc3c
00000320: 8d45 2c3d f5a5 a73c 64af 44bd b8e3 dc3b
00000330: 2c09 e8bd 02a1 823e d2f5 46bd 7900 2a3e
00000340: 58d4 623d f37f fc3c f208 c13b aad7 ab3e
00000350: 577e bb3e 3e9a 233e 9724 5c3e bdbf de3d
00000360: d3f4 503e e44f 26bd f64a a73e 45d0 153e
00000370: c6aa 4abe c89c 003e a2d5 7bbc 9e3f 1bbe
00000380: f4ea 023d 4b35 a83d fa1b e6bd 1855 9abd
00000390: aaa0 833d 9415 983c 8c2a c93d a2ff 9ebc
000003a0: 6eac 5a3e 6f6c d83c df54 07be cde2 963e
000003b0: e991 c93e 25bf 6b3e 41f2 dabd a8db 2fbe
000003c0: a57c 813e ce90 933e 623c b4bd b91e 383e
000003d0: 1ac0 523e 634c a8be 93fb a63d 1f88 d43c
000003e0: f9aa d2bb 4222 c23e 0f1b 6b3e 40f1 5f3e
000003f0: 154a 723e 446e 2b3e 2745 d2bd 405e 9d3d

model.6.bias f4 [128]
0.11855873 0.11607322 0.010974595 0.103660494 0.0053229365 0.12701292 0.01 -0.0039360356
-0.0008722036 0.10704456 0.01 0.01 0.034594584 0.10874349 0.106010914 0.01
0.041123882 0.002625781 0.107214674 -5.815446e-05 -0.009722404 0.11491082 0.058843527 0.10414215
0.09849455 0.10457021 0.11939357 0.055561982 0.11907184 6.4546955e-05 0.105607495 0.10469689
0.10287334 0.117150724 0.1122701 0.005526204 0.000113923095 0.014055255 0.0032991848 0.115342684
0.01 -0.013648676 0.051805682 0.01 0.05677911 0.114104666 0.01 0.108106144
0.0035468892 0.102435 0.10702486 -0.0031962795 0.07034299 0.109848104 0.004721137 0.11411729
0.01 0.048822902 -0.0062461905 0.040453386 0.040479273 0.0033400557 0.054331034 -0.008123107
0.039708115 0.01 0.08050131 0.083088994 0.058136813 0.0030474972 0.01 -0.0027436805
-0.0112402905 0.0140767 0.01 0.020050395 0.05592016 0.09948551 0.115806326 0.06716427
-0.018344134 0.053598933 0.10313804 0.111425854 0.004437916 0.08024337 0.03857145 0.043249026
0.0963689 0.1099733 0.043156523 0.108007185 -0.0012970935 0.051693823 -0.004505592 0.115719885
-0.004230293 0.121486716 0.12412253 0.00369014 -0.0014429707 0.0059461524 0.0032610733 0.01
0.0057403534 0.050214212 0.10495235 0.01 0.025043942 0.1060551 0.029904272 0.11065664
0.11050213 0.0011184055 0.11030083 0.03936472 -0.01954005 0.10623345 0.06778821 0.01
0.0031392346 0.116724 0.11328261 0.03870602 -0.006485436 0.11147613 0.0043665296 0.028499668
00000000: ebce f23d ccb7 ed3d cace 333c f44b d43d
00000010: 076c ae3b ad0f 023e 0ad7 233c dcf9 80bb
00000020: 98a4 64ba 2e3a db3d 0ad7 233c 0ad7 233c
00000030: 0db3 0d3d e8b4 de3d 401c d93d 0ad7 233c
00000040: 8471 283d 4c15 2c3b 5e93 db3d e0ea 73b8
00000050: b84a 1fbc 5d56 eb3d e905 713d 7b48 d53d
00000060: 83b7 c93d e828 d63d 9e84 f43d f694 633d
00000070: f0db f33d 625d 8738 be48 d83d 536b d63d
00000080: 42af d23d b8ec ef3d deed e53d 2915 b53b
00000090: ffe9 ee38 0348 663c 2337 583b c938 ec3d
000000a0: 0ad7 233c b29e 5fbc 3232 543d 0ad7 233c
000000b0: 3691 683d b5af e93d 0ad7 233c c166 dd3d
000000c0: ed72 683b 71c9 d13d da2f db3d ac78 51bb
000000d0: fc0f 903d 0bf8 e03d c5b3 9a3b 53b6 e93d
000000e0: 0ad7 233c 86fa 473d d8ac ccbb 73b2 253d
000000f0: 98cd 253d d6e4 5a3b 388a 5e3d c816 05bc
00000100: faa4 223d 0ad7 233c dfdd a43d 902a aa3d
00000110: de20 6e3d 85b8 473b 0ad7 233c 52cf 33bb
00000120: 3229 38bc f6a1 663c 0ad7 233c ba40 a43c
00000130: 8a0c 653d 0fbf cb3d de2b ed3d 6c8d 893d
00000140: 7046 96bc 8e8a 5b3d 093a d33d 3d33 e43d
00000150: f06b 913b a356 a43d 19fd 1d3d e425 313d
00000160: 0f5d c53d ae39 e13d e5c4 303d df32 dd3d
00000170: 3c03 aaba e7bc 533d a5a3 93bb 8cfe ec3d
00000180: 459e 8abb 07ce f83d f433 fe3d 47d6 713b
00000190: 1022 bdba f1d7 c23b bbb7 553b 0ad7 233c
000001a0: 9319 bc3b 6bad 4d3d 42f1 d63d 0ad7 233c
000001b0: f428 cd3c 6b33 d93d cef9 f43c f39f e23d
000001c0: f14e e23d 7697 923a 67e5 e13d e73c 213d
000001d0: 7412 a0bc ec90 d93d 8cd4 8a3d 0ad7 233c
000001e0: 9ebb 4d3b fe0c ef3d b700 e83d 348a 1e3d
000001f0: c883 d4bb 994d e43d 1b15 8f3b 2378 e93c

model.8.weight f4 [3, 128]
-0.19824901 -0.22620012 0.17957589 -0.071605176 0.25813177 -0.04767795 0.1519796 -0.00044836715
-0.0038090516 -0.32388687 -0.15063573 -0.0024813984 0.0752013 -0.36352098 -0.30874953 -0.06588446
0.25761783 0.047781732 -0.2536305 0.046947956 0.13944483 -0.08288647 0.06350983 -0.48915797
-0.12874196 -0.23284265 -0.18563005 0.23268145 -0.10074688 -0.061602335 -0.3421505 -0.15135679
-0.3669168 -0.19531341 -0.09743419 0.14993763 0.01273583 0.20730402 -0.10052929 -0.24380831
0.07476338 0.06974518 0.19925582 -0.029986758 0.08358471 -0.16756465 0.051696684 -0.2472137
-0.06806424 -0.39034426 -0.21392375 -0.054674324 0.008541913 -0.20283432 -0.20686795 -0.330547
0.016643424 0.12678225 0.020864585 0.1992558 0.17343475 -0.0061186096 0.11549405 -0.084642194
0.05891374 -0.047773123 -0.05089404 -0.019306844 0.14225236 -0.2989178 0.011902633 0.08377813
-0.014890683 -0.116751425 0.006232003 0.15107797 0.11961834 -0.07277973 -0.18006225 -0.16614828
-0.09442923 0.016326666 -0.1829978 -0.22587569 -0.045572113 0.032535717 0.117266394 0.43002
-0.019316161 -0.3229424 -0.20056334 -0.041694634 -0.08942302 0.27314594 0.13212086 -0.23326406
-0.15412463 0.009943751 -0.008945392 0.28385296 0.06646508 0.16297628 -0.15395078 -0.09775845
0.17609572 0.17355983 -0.19988135 0.04809476 0.19187936 -0.29005975 0.32124653 -0.17091419
-0.22758305 0.060641214 -0.22801778 0.3770299 -0.061108418 -0.2528047 0.25578785 -0.13019937
0.056384668 -0.050876938 -0.14193459 0.4017426 -0.041275173 -0.1351992 -0.017230557 0.28210267
0.069803745 0.11199181 0.05052062 0.39896238 -0.09703004 0.21669753 0.0028747336 0.0913152
0.045166302 0.17067869 -0.050400164 -0.050040122 -0.29829144 0.06544638 0.22256185 -0.08205669
-0.17610133 -0.08060441 0.26563418 0.0022978229 0.1402109 0.17950928 -0.23777176 -0.04855996
0.17485572 0.0969352 0.13053994 0.008114327 0.20681068 -0.030852746 0.17397225 0.124248944
0.12885712 0.11103957 0.18345092 -0.1931204 -0.0085993325 -0.20410089 -0.11363698 0.022846345
-0.12805185 0.0503493 -0.09740889 -0.110882185 -0.13733621 0.11313455 -0.27209032 0.11400404
0.015404241 0.36716285 0.25344154 -0.22684954 -0.22990519 0.22779039 0.075513415 0.04739561
0.09879333 -0.07632979 -0.009773469 -0.17362943 -0.1766605 0.053341355 -0.19770776 -0.1445447
-0.14867839 -0.030831322 0.23653825 0.5008885 -0.14474674 0.10271781 -0.30175 0.016209355
-0.07081739 -0.040520184 0.1745166 -0.22279367 -0.08461829 0.21256752 0.16633625 0.05385801
-0.08899151 -0.3049651 0.34931275 0.2068621 -0.08372202 0.28971845 -0.3743445 -0.04162197
0.24834582 0.046000276 -0.013800837 0.42248255 0.065415844 -0.053095933 0.15419246 0.11336092
-0.046256505 0.3145065 0.26560783 -0.00067376514 0.031370766 -0.08232564 -0.30852628 0.11614551
-0.3650069 -0.082410246 0.31078476 0.23473649 -0.19198857 0.12663734 -0.14991064 0.21005736
0.095374525 -0.25418493 0.08707674 -0.016950553 -0.13129522 0.26185855 0.019675964 -0.079863764
-0.03630057 0.29507118 0.23159306 -0.23326716 -0.10461597 0.2624269 0.027225083 -0.095000125
00000000: ca01 4bbe 01a1 67be bee2 373e bca5 92bd
00000010: d929 843e f449 43bd 8aa0 1b3e d212 ebb9
00000020: 48a1 79bb 80d4 a5be 4140 1abe f59e 22bb
00000030: 2403 9a3d 6c1f babe 6b14 9ebe 6fee 86bd
00000040: 7ce6 833e c7b6 433d dbdb 81be 804c 403d
00000050: a0ca 0e3e 62c0 a9bd 7111 823d ea72 fabe
00000060: efd4 03be 4e6e 6ebe ce15 3ebe 0c44 6e3e
00000070: 6154 cebd bb52 7cbd 5a2e afbe 46fd 1abe
00000080: 85dc bbbe 3d00 48be 948b c7bd 4089 193e
00000090: f1a9 503c 8147 543e 4de2 cdbd e3a8 79be
000000a0: 8b1d 993d 90d6 8e3d b809 4c3e caa6 f5bc
000000b0: 762e ab3d 1196 2bbe e7bf 533d 9725 7dbe
000000c0: 4465 8bbd 34db c7be d40e 5bbe 2ff2 5fbd
000000d0: 61f3 0b3c cdb3 4fbe 31d5 53be 753d a9be
000000e0: ca57 883c 35d3 013e 35ec aa3c b609 4c3e
000000f0: e198 313e 9e7e c8bb 2588 ec3d e358 adbd
00000100: 894f 713d c0ad 43bd 4576 50bd 6329 9ebc
00000110: 9aaa 113e c10b 99be 4303 433c de93 ab3d
00000120: 0df8 73bc 5f1b efbd d535 cc3b 2fb4 1a3e
00000130: 76fa f43d 8a0d 95bd 3d62 38be c622 2abe
00000140: 1d64 c1bd 80bf 853c c663 3bbe f54b 67be
00000150: d3a9 3abd 2c44 053d 5d29 f03d 952b dc3e
00000160: ed3c 9ebc b558 a5be 7a60 4dbe fec7 2abd
00000170: 6b23 b7bd c9d9 8b3e b14a 073e c6dc 6ebe
00000180: d9d2 1dbe 1deb 223c b28f 12bc 2d55 913e
00000190: d81e 883d 41e3 263e 46a5 1dbe 9535 c8bd
000001a0: 7052 343e abb9 313e b2ad 4cbe 03ff 443d
000001b0: 067c 443e b682 94be 6d7a a43e 2104 2fbe
000001c0: 880b 69be ec62 783d 7e7d 69be 100a c13e
000001d0: d24c 7abd 9e6f 81be a0f6 823e fc52 05be
000001e0: 9cf3 663d 5664 50bd 4d57 11be 35b1 cd3e
000001f0: 2810 29bd a971 0abe 1927 8dbc c36f 903e
00000200: 44f5 8e3d f65b e53d b6ee 4e3d cc44 cc3e
00000210: b0b7 c6bd f5e5 5d3e 0766 3c3b 7703 bb3d
00000220: 4d00 393d 65c6 2e3e 6770 4ebd dff6 4cbd
00000230: a8b9 98be c008 863d 41e7 633e 560d a8bd
00000240: e853 34be ed13 a5bd 3401 883e 1297 163b
00000250: 7293 0f3e 48d1 373e 717a 73be cfe6 46bd
00000260: 610d 333e f685 c63d 43ac 053e f4f1 043c
00000270: 2ec6 533e e6be fcbc c825 323e 3b76 fe3d
00000280: 1ff3 033e b768 e33d 8fda 3b3e 5bc1 45be
00000290: 37e4 0cbc d3ff 50be 81ba e8bd 4228 bb3c
000002a0: 0620 03be 113b 4e3d 507e c7bd 3316 e3bd
000002b0: dda1 0cbe 16b3 e73d 6c4f 8bbe f37a e93d
000002c0: 1262 7c3c c5fc bb3e 17c3 813e 3f4b 68be
000002d0: 446c 6bbe e241 693e c7a6 9a3d e621 423d
000002e0: 2854 ca3d cb52 9cbd e620 20bc eacb 31be
000002f0: 7de6 34be 777c 5a3d e773 4abe 8703 14be
00000300: 263f 18be f891 fcbc 1537 723e 3b3a 003f
00000310: 7d38 14be b75d d23d fa7e 9abe 7bc9 843c
00000320: b508 91bd 7ef8 25bd 7bb4 323e 0624 64be
00000330: 5b4c adbd 4dab 593e 0d54 2a3e 379a 5c3d
00000340: 2e41 b6bd 6324 9cbe 1fd9 b23e a9d3 533e
00000350: 7376 abbd fa55 943e 15aa bfbe cc7b 2abd
00000360: 5e4e 7e3e c96a 3c3d e81c 62bc a24f d83e
00000370: bef8 853d 1f7b 59bd a1e4 1d3e c529 e83d
00000380: 7677 3dbd ff06 a13e c0fd 873e 9d9f 30ba
00000390: a27e 003d 589a a8bd 28f7 9dbe b2dd ed3d
000003a0: 2fe2 babe b4c6 a8bd 2e1f 9f3e c35e 703e
000003b0: a798 44be 38ad 013e 2d82 19be 4719 573e
000003c0: b853 c33d 8724 82be 4a55 b23d e3db 8abc
000003d0: 4172 06be 5312 863e 7d2f a13c 9d8f a3bd
000003e0: e8af 14bd 9213 973e bb26 6d3e 96dd 6ebe
000003f0: e640 d6bd d25c 863e 2307 df3c 6d8f c2bd

model.8.bias f4 [3]
-0.07656977 0.09879447 0.027333813
00000000: 9dd0 9cbd c154 ca3d 29eb df3c
