backend/supervisor/ai_models/p2_actor_envs_2_lam_0_9072109673770274_gamma_0_9748655626322407_t_4773_a_lr_0_0009862160777679757_c_lr_0_0009250117935695386.pth (torch, 209886 bytes, 10 tensors)

model.0.weight f4 [128, 6]
00000000: 44e1 f5be 552f 24be cf9a 0dbf dfcb 95be
00000010: 5dea e7be 7b49 243e bc48 863e 010f 2d3e
00000020: 52cf 103e 57f4 4c3f 95e6 93be e3b2 59bf
00000030: 980a f5be 6718 033f 6948 5a3e f1bd 0d3f
00000040: 56b1 72bf adf0 5a3d 7dca 273f f60d 8f3e
00000050: f0bf f03e 3151 4bbe 6e31 833d 3694 8ebd
00000060: 915e 1abf bf6d b9be 08ad a13e 6206 213f
00000070: 3399 edbe e29b cf3d 157d 02bf 2f98 82bf
00000080: c5a0 7cbf 7b14 c2be 3404 d4be c1db f83e
00000090: b797 363f fabb 293e b7b5 593f ab5f c73d
000000a0: 1423 09bf 547e d3bd 1a2d ac3d 3a51 d03e
000000b0: 6c3a 913f 952a 13bf 12e0 9d3d 5368 49be
000000c0: 431a c2bd 3f38 11bf 65f7 4b3f 269b 9f3e
000000d0: 6493 05bf d87d 663f 1afc 87be ad11 433e
000000e0: ea16 e43c 51f7 5cbf 4eab 263e ce7f 353e
000000f0: 7b4f 973f 432e e73e bf7b bfbe f76d 13bf
00000100: 10d9 793b a076 32bf ed3b b0be fcb3 0abf
00000110: e743 2e3d be7d 0cbf facb 923f bad7 0abc
00000120: 900a a03e 5ec6 20bf 3a25 363f a67a b1bd
00000130: 684c f13e 8ede 34bd 8841 85bd 8f1e b83e
00000140: fe67 563f 8da7 523f 2ae9 21bf c6e7 c3be
00000150: 3629 3b3f 7cb1 843e 922a b9bf 3674 8bbe
00000160: cbb1 413e d6a3 a83f 992f 1cbe 074c 85bf
00000170: b0d8 9dbd 7303 183f 7ba1 87bf 2e68 353e
00000180: c0c9 efbe 0bd6 053f 5fd0 c23f aaa8 563e
00000190: 0b89 96be bbe5 b43e 2902 133f bdcf e7be
000001a0: 6d73 4f3f 446c 32be 7f7b ae3f 7ba6 e2be
000001b0: b8e8 993e 5569 b03e ac0b d03e 7e0f 813f
000001c0: 8ced 3c3f 72b2 01bf 87ac e63d 797f 6b3f
000001d0: defc 2dbf acbb 0abe db8c 93bd c0d6 f6bd
000001e0: 9d79 ffbe 6ea2 93bf 1d3c a5be b0e9 6d3e
000001f0: 06ca 3cbf 6178 e6bd d38a 3b3e abd4 673c
00000200: c68f 4bbf e097 1e3e 67f1 6abf 0ff9 e4be
00000210: 96ed 15bf 623b c4bf d047 8d3f 7d27 77bf
00000220: c351 983e 20a7 e63d 0116 193f 5fb6 ad3e
00000230: ec20 cebe e456 063e 0f10 133d 40ea e03c
00000240: 996e 53bf 7174 e03d 40e3 e6be 6864 103f
00000250: 32e7 abbe 1de6 23be 6e7c bf3e 1ab5 5fbf
00000260: 44cf 8d3e 6318 613f 7696 b3bd b1b6 473e
00000270: 24b0 633e 5ff2 aebd 1a71 943e 03e7 bfbe
00000280: b1b7 aa3e 70ec 44bf a5a7 c43d 5d2a 37be
00000290: 8d06 e2be c3a1 1ebc fff7 2d3f 701e c9be
000002a0: 05a5 19bf ef68 80bf 60f4 b9be f4cf d9be
000002b0: 53e3 1c3f b4f0 16bd 7b0d bf3f 6aac 7c3e
000002c0: fa73 8c3d 7c6b 64bc f5b2 bcbe 7755 96bd
000002d0: 706f a03e 61c4 babe fa52 403f 74f7 fa3e
000002e0: 9db7 bcbd e268 4f3f 35b5 0dbe f35c 9b3d
000002f0: 0f10 c93e d909 f9be a21a 13bf db72 353e
00000300: 3bed 6ebe 2f6a e5be 0ef7 873d 9781 95be
00000310: 621a 37bf a95d 6cbf 8052 8c3e cb4c b6be
00000320: a5d3 00bf caea c43c b204 8c3e 7360 7ebd
00000330: 55fe 5bbe 7dda 84be 6be0 5f3e aa84 933e
00000340: 6dab 9a3f 191f 963f 7284 5f3e 1ed3 01bf
00000350: 073d b03c 6560 55be 9b14 9f3e 5799 e7be
00000360: 7649 6a3f c36f 8a3f ad21 e53e f5ed cfbe
00000370: 1b17 bd3d c21a 07bf 33d5 f6be 0c73 28bf
00000380: 9a74 0bbf 41ac 82bf bb94 8fbf 00ae 973d
00000390: 9e81 a9bf 1ee9 1ebf 847c f93c 65db b73f
000003a0: 36e8 bbbe 3f3e 4d3e 1053 e6be e2f6 8ebf
000003b0: b680 3d3f d795 06bf 7835 153f b8fc adbd
000003c0: b68f 2d3f 92f5 da3e 9497 283f 2cf9 723f
000003d0: 9471 9b3f f33a 14bf 30bb 283e 662a 6a3e
000003e0: 431e 4cbe 3b9f 54bf 1c66 b6be 85d9 ccbe
000003f0: 9ff2 c63e fb56 903e 79c2 6a3f bd83 983e
-0.48023427 -0.1603368 -0.55314344 -0.29257104 -0.45295992 0.16043656 0.26227367 0.16900255
0.14141586 0.80060333 -0.28886858 -0.85038584 -0.47859645 0.5120911 0.21316685 0.5536795
-0.94801843 0.053452183 0.6554335 0.2794034 0.47021437 -0.19855191 0.06405912 -0.06961863
-0.60300547 -0.36216542 0.31577325 0.62900364 -0.46405944 0.10137154 -0.5097211 -1.0202693
-0.98682815 -0.3790625 -0.41409457 0.4860516 0.7132525 0.16575614 0.850429 0.09735044
-0.5356915 -0.103268296 0.0840704 0.4068697 1.1345954 -0.5748685 0.07708754 -0.19668703
-0.09477665 -0.5672645 0.7967437 0.31173056 -0.52178025 0.9003577 -0.26559526 0.19049712
0.027842958 -0.86314875 0.16276285 0.17724535 1.182113 0.45152482 -0.37399098 -0.5758967
0.0038123764 -0.6971226 -0.3442072 -0.54180884 0.042545225 -0.5487937 1.1468499 -0.008474285
0.3125806 -0.62802684 0.71150553 -0.086659715 0.47128606 -0.044157557 -0.0650664 0.35960814
0.8375243 0.8228691 -0.63246405 -0.38262767 0.7310976 0.2591666 -1.4466116 -0.272371
0.18915479 1.3174999 -0.15252532 -1.0413827 -0.077073455 0.59380263 -1.0596155 0.17715523
-0.4683361 0.5227973 1.521984 0.20962778 -0.2940143 0.3533152 0.5742517 -0.4527568
0.810355 -0.17424113 1.3631438 -0.4426764 0.30060363 0.34455362 0.40633905 1.0082853
0.7379997 -0.5066291 0.11263376 0.9199138 -0.6796397 -0.13548154 -0.072046004 -0.12052679
-0.4989747 -1.1533945 -0.32272425 0.23233676 -0.73745763 -0.11253429 0.18314676 0.014149825
-0.79516256 0.15487623 -0.917746 -0.44721267 -0.5856565 -1.5330622 1.103754 -0.9654463
0.2974988 0.11262345 0.597992 0.339282 -0.40259492 0.13119084 0.035903987 0.02745545
-0.82590634 0.109597094 -0.45095253 0.5640321 -0.33574826 -0.1600575 0.3739962 -0.87385714
0.27697194 0.87927836 -0.087689325 0.19503285 0.22235161 -0.08542322 0.2899254 -0.37480935
0.3334327 -0.76923275 0.09602288 -0.17887254 -0.44145623 -0.009682122 0.67956537 -0.39281034
-0.60017425 -1.0032023 -0.36319256 -0.42541468 0.6128437 -0.036850646 1.4925989 0.24675146
0.06858058 -0.013941642 -0.36855283 -0.0734052 0.3133502 -0.3647795 0.7512661 0.49016917
-0.09214709 0.81019413 -0.13838656 0.07586088 0.39270064 -0.48640326 -0.57462513 0.17719595
-0.23332684 -0.44807574 0.06638919 -0.29200432 -0.7152463 -0.92330414 0.27406693 -0.35605463
-0.50322944 0.024037737 0.27347332 -0.0621037 -0.21483739 -0.25947943 0.21862952 0.28812152
1.2083565 1.172824 0.21827868 -0.50712764 0.021513475 -0.20837553 0.31070408 -0.45234177
0.9151834 1.0815357 0.44752255 -0.40611234 0.09232923 -0.52775204 -0.48209533 -0.6580055
-0.54474795 -1.0208818 -1.1217264 0.07406235 -1.3242681 -0.6207446 0.030454881 1.4363829
-0.367006 0.20043276 -0.44985247 -1.1169093 0.7402452 -0.5257239 0.5828471 -0.08495468
0.6779741 0.4276548 0.6585629 0.94911456 1.2144036 -0.5790245 0.16477656 0.22867736
-0.19933419 -0.83055466 -0.35624778 -0.40009704 0.3885698 0.2819136 0.9170299 0.29788008

model.0.bias f4 [128]
00000000: 0ad7 233c f7ae 013e a021 093d ad88 163e
00000010: aa90 493d 0ad7 233c 88cb 953b 056c b53d
00000020: 8032 ff3d 0b88 b13b 6214 a83d 0ad7 233c
00000030: ed7c e83d 82b6 2e3d f24b e03d 2f02 95bc
00000040: 5360 0b3d 2e29 033e f708 d63d 735c c23d
00000050: 0ad7 233c 489e 813d 0ad7 233c 57d4 893d
00000060: bebf e93c b850 f63d f6e1 6b3d cf1f c33b
00000070: 0ad7 233c ee57 f03d 818d 853d b5e8 d13d
00000080: 0ad7 233c 0ad7 233c b03a 863d 0ad7 233c
00000090: d170 153e 0ad7 233c 05df a3bb 0ad7 233c
000000a0: a28e aa3d c356 1e3d b649 d53d 340b 973d
000000b0: 401b 7cbb 6d26 4a3d 879f 023e 0ad7 233c
000000c0: d612 4d3d 0ad7 233c 0ad7 233c eaac 91bc
000000d0: 6c35 a13d e253 b43d 8d06 103e ff32 af3d
000000e0: 0ad7 233c 66e1 30bb 0ad7 233c 0ad7 233c
000000f0: eaa0 0d3e 5705 b93d fd61 e93d 8322 cc3d
00000100: 0ad7 233c 0ad7 233c 0ad7 233c 4a46 9c3d
00000110: a3e0 d93d 0ad7 233c f85e 1e3d cd0f 243d
00000120: 0209 1b3d 21b9 1dbd 0ad7 233c 0ad7 233c
00000130: 708b e83d 0ad7 233c 422b ba3d d1d3 273d
00000140: a087 b33d e802 063d 6dc0 ce3d cf31 a23d
00000150: f4ef c23d 0ad7 233c a79c 9a3d 3a5a b1bb
00000160: 23fc a7ba 400e 4d3c 0ad7 233c 0ad7 233c
00000170: 3b53 a13d 5437 703c 830d c23d 5670 033e
00000180: e99a a93d 29eb ef3d 440c 133d cecd 973d
00000190: 645b ea3d 0ad7 233c dd78 023e e40c ec3d
000001a0: 5eac d03d 7bdf 003e aa8c 8a3d 2430 d63d
000001b0: 463d 063e 0ad7 233c 0ad7 233c 9e02 0f3d
000001c0: 1b93 ea3d 0ad7 233c 0ad7 233c eee0 413d
000001d0: 0ad7 233c 0ad7 233c 4a56 f73d 3636 783d
000001e0: 08b8 fb3d 108b 0d3e 81bf cf3b 0781 cf3d
000001f0: 6150 ed3d 8cae 70bc cf6e de3d 4dbb 173c
0.01 0.126644 0.033479333 0.14700575 0.049210228 0.01 0.004571382 0.08858494
0.12460804 0.005417829 0.08207013 0.01 0.11351953 0.04265452 0.109519854 -0.018189518
0.03402741 0.12808678 0.10450929 0.094902895 0.01 0.06329018 0.01 0.06729954
0.028533813 0.12027115 0.05758854 0.0059547196 0.01 0.11735521 0.0652113 0.102494635
0.01 0.01 0.065541625 0.01 0.14593817 0.01 -0.0050009512 0.01
0.08327986 0.03865696 0.1041445 0.07375184 -0.003846839 0.049353052 0.12756167 0.01
0.05006679 0.01 0.01 -0.017782647 0.078715175 0.08805062 0.14064999 0.085546486
0.01 -0.0026989817 0.01 0.01 0.13830915 0.090342216 0.11395643 0.0996752
0.01 0.01 0.01 0.07630594 0.10638549 0.01 0.038664788 0.04005413
0.037850387 -0.03850663 0.01 0.01 0.113547206 0.01 0.09090282 0.04097349
0.08766103 0.032717615 0.10095296 0.079196565 0.09518424 0.01 0.0754941 -0.005412367
-0.0012816231 0.0125156045 0.01 0.01 0.07877203 0.014661629 0.094752334 0.12835822
0.082815 0.11714775 0.03590037 0.07412301 0.11443213 0.01 0.12741418 0.11525896
0.101891264 0.12585251 0.06765111 0.10458401 0.13109311 0.01 0.01 0.034914605
0.114538394 0.01 0.01 0.04733365 0.01 0.01 0.12077005 0.060598575
0.122909606 0.1382258 0.0063399677 0.10132032 0.11587597 -0.014690053 0.10860979 0.009260965

model.2.weight f4 [128, 128]
00000000: 9f72 47be ac87 db3d 2377 97bd bb79 f43d
00000010: abf5 913c 14ef f73d d26d 633e 6f01 123e
00000020: e788 f33d 66fb 33be 3d24 223c af24 12bc
00000030: d6dc 4c3e 59ff 2c3e c25f 2fbe e1aa 64be
00000040: ecc0 6e3e e9a1 4cbd 18b4 e93d dc86 e4bc
00000050: 89be 0a3e 7506 9dbe 70fd 5cbe 2f5a c5bd
00000060: ae47 68bd 702e 833c 92bb 473d a5a9 4d3d
00000070: f624 3a3e 44fa fbbd e079 723e 9284 b13d
00000080: 4af1 4bbe f7f2 803e ce41 0abc 5728 3f3e
00000090: 3ff8 37bd d7cb 0dbe 752d 0fbb 594a 893d
000000a0: 7848 493e c778 e1bd d2eb 693e 96ba 4f3d
000000b0: b0ee 003e 2f63 873e af53 c43e 273f 3e3d
000000c0: 4d89 03bc 7f09 10be 1bc7 6d3e a4d4 37bd
000000d0: 8bc8 1ebd 8bbb f63d e8dd 143e dbf9 8b3e
000000e0: 0b2e eabd 3f8e 623e 89c8 84be 95a4 0c3e
000000f0: a305 ad3d c56b c9bd 2270 d93c 9a79 b2bd
00000100: f268 db3d 9008 11be 983f 10be d5b9 2d3d
00000110: 01ad f53b feb1 303d 9489 3ebd 2df5 9e3e
00000120: 540c 223c 25e9 c5bc 8ad6 bb3d ddc4 38bc
00000130: a54c 9d3e c0c3 ef3d 16a4 073e e0db d53c
00000140: a8ba 1d3e 4360 3c3e 265d 233e b635 3a3e
00000150: 5b28 b93d a2f5 08bd 0f64 a4bd 6cac 86bd
00000160: 8abf 113e d1d9 44bd 4e52 5bbc 8ebb 003e
00000170: 02c3 263e eaeb d6bd c886 0e3d 4b3c 81bb
00000180: 2a0c 16bd 8e9c e83c 72fe 873e b09a b0bd
00000190: 7e07 8d3e f6e6 02be b128 83bd 944f 40be
000001a0: aedd 833d a698 7a3c 3b6e ab3d 9f4d f2bd
000001b0: 4991 a3bd a1bf 31be 7f38 213e 17c4 f0bd
000001c0: d56a 48be aa57 65bd cc66 84bd af1b 9b3e
000001d0: 5527 933d 8205 0dbe da48 843e 62ef 993d
000001e0: 3e39 233a e5da 15bd cebf 933e 8bb0 16be
000001f0: 2d8c 5e3e ee92 bf3d f69d 3f3e 3c49 7f3e
00000200: 7a83 9a3e 3097 8abb 3801 3bbd 5f8f 9c3e
00000210: 93d4 fdbc 1b84 f13d 77c5 d9bd b7d8 84bc
00000220: 51d6 ff3d 27f9 6bbd 7308 9cbd 8368 843e
00000230: cb84 28bd 6248 bc3d 3772 1fbe e252 9d3d
00000240: ec8e 29be 2585 823e d951 6c3d e68e f6bd
00000250: 3575 1e3e 1385 2b3e 53cf cc3d 845c 72be
00000260: ba45 04be 6595 153e a0f6 1ebe 33c2 42be
00000270: f1af a43d 395f 05be adab cebd 040d a2bc
00000280: 40f1 5ebd cb80 9bbc 94c3 bebc 3a97 4bbe
00000290: 2fff 87bd cea5 17be f275 b8bc 58b5 f53c
000002a0: 44e0 a13e ae0b df3b 9f18 abbc 9735 afbd
000002b0: 0add 4ebd 5256 9e3c ce3d 1dbe 6071 0abe
000002c0: 29cc 98bd 2567 94bd d2ab bebd 4b44 7b3d
000002d0: 690d 9abd d377 a33e 02a9 383c 58d5 993e
000002e0: dca6 e7bc 24fc e53c 59a7 c8bd f155 a93d
000002f0: d248 18be 3223 a63d 1934 ebbd bd9c 533d
00000300: 2998 2cbe e622 653c 33d4 26bd 9c87 4fbe
00000310: 5d66 f9bd bd3a b13e 227c a3be 7184 6abd
00000320: 8586 5fbe a815 243d 5b6f 93bc 9a22 963e
00000330: 953e 8c3d 6e4b 743d 78c8 293e 6af6 9bbe
00000340: 41a2 0e3e 4017 08bc 8339 473e 02de 783d
00000350: 19a5 c83d 2662 973e b6b1 31bd 354f 283e
00000360: 5904 e9bd 824e 663d 1b66 6bbc 39fc c9bd
00000370: 6497 8cbe 27b1 adbc 9574 dbbd 28f9 03be
00000380: e7f7 4ebd 9b27 e8bd ecc3 9a3a e4f2 493d
00000390: 64be de3c 75fc 303e fea4 1ebd c30c 62bd
000003a0: 9586 9abd d3a7 e63d d536 813e 3fa5 50be
000003b0: d11a 5a3d b2cd 12be b4c5 16bd 8caa 65be
000003c0: a683 363d b45d 0c3d 7691 883d 0c34 3dbd
000003d0: 07f8 8a3e 90b1 f63d 11ac d43d 1e9f 32be
000003e0: 220e d53c e22c debd 9dbc 5dbe dec3 00be
000003f0: 85e6 283d 86d3 97bd 9204 c1be 3377 8ab8
-0.19477318 0.10719237 -0.073957704 0.11937281 0.017817339 0.121061474 0.22209862 0.1425836
0.118913464 -0.1757637 0.009896335 -0.008919879 0.20006117 0.16894282 -0.17126372 -0.2233081
0.23315781 -0.049959097 0.11411303 -0.027896337 0.13549246 -0.3066899 -0.21581054 -0.09636342
-0.056708984 0.016013354 0.048762865 0.050210614 0.18178162 -0.12303594 0.23679304 0.08667864
-0.19916263 0.25185367 -0.008438541 0.18667732 -0.04491448 -0.1384729 -0.0021847163 0.06703634
0.19656551 -0.110093646 0.22843865 0.05071505 0.12591052 0.2644286 0.38345096 0.046446946
-0.0080283405 -0.14066122 0.23220484 -0.044880524 -0.03876547 0.1204749 0.14537776 0.27339062
-0.11434563 0.22124575 -0.25934246 0.13734658 0.08448341 -0.098350085 0.026542727 -0.087146
0.10713376 -0.14163423 -0.14086759 0.04241355 0.0074974303 0.043138497 -0.046517923 0.3104643
0.009890635 -0.024159024 0.091717795 -0.011277405 0.30722538 0.11707258 0.13246188 0.026105821
0.15403235 0.18396096 0.15953502 0.18184552 0.090409 -0.03343738 -0.08026897 -0.065758556
0.14233223 -0.04805929 -0.013386322 0.12571546 0.16285327 -0.10494216 0.034796506 -0.003943955
-0.036632694 0.028394964 0.26561314 -0.08623254 0.2754478 -0.12783417 -0.06404246 -0.18780357
0.064387664 0.015295183 0.08370634 -0.11831211 -0.07986695 -0.17358257 0.15744208 -0.11756151
-0.19572003 -0.055991806 -0.064649194 0.30294558 0.07185236 -0.13771632 0.2583683 0.07516362
0.00062264863 -0.036585707 0.28857273 -0.14715783 0.2173316 0.093541965 0.18712601 0.2493028
0.30178434 -0.0042294487 -0.04565546 0.30578133 -0.030985152 0.11792775 -0.106333666 -0.016216619
0.124920495 -0.057610657 -0.07618799 0.25860986 -0.041142266 0.091934934 -0.15570913 0.07681824
-0.16558427 0.25492206 0.057695244 -0.120389745 0.15474398 0.16749983 0.100004815 -0.23668104
-0.12917224 0.1460777 -0.15523767 -0.19019394 0.08041371 -0.13024606 -0.10091338 -0.019781597
-0.054429293 -0.018982312 -0.023286618 -0.19881907 -0.06640469 -0.14809343 -0.022517178 0.029993698
0.31616414 0.0068068122 -0.020885764 -0.08555143 -0.050503768 0.01932827 -0.15355608 -0.13519812
-0.074608155 -0.07246236 -0.09310116 0.061344426 -0.07522089 0.31927356 0.011270763 0.3004558
-0.028277807 0.028074332 -0.09797544 0.08268345 -0.14871529 0.08112182 -0.11484546 0.05166315
-0.1685492 0.013985371 -0.040729713 -0.20266575 -0.12177727 0.34615126 -0.31930643 -0.057255212
-0.21828659 0.040059716 -0.017997434 0.29323274 0.06847874 0.059642248 0.16580379 -0.30461437
0.13929082 -0.0083063245 0.19455533 0.0607586 0.09797115 0.2956707 -0.04338237 0.16436465
-0.113777824 0.056227215 -0.014367606 -0.09862561 -0.27459252 -0.021202637 -0.10715596 -0.12888014
-0.050529387 -0.11335679 0.0011807657 0.049303904 0.027190395 0.17283805 -0.038731568 -0.05518795
-0.07545201 0.11262479 0.25237146 -0.20375536 0.05324823 -0.14336279 -0.03680964 -0.2242834
0.044559143 0.03426905 0.066683695 -0.046192214 0.27142355 0.12045586 0.103843816 -0.17443511
0.026007716 -0.108484045 -0.21653982 -0.12574717 0.041235466 -0.07413392 -0.376988 -6.6025554e-05

model.2.bias f4 [128]
00000000: 807f 043d 06be 03bc 29f3 e13d 4165 4d3d
00000010: e061 d73d 4646 be3d a992 be3d f5d5 adbb
00000020: e554 033e 6611 f73d 0ad7 233c 4f42 213d
00000030: 0ad7 233c f444 373d 0947 ccbb 439a 743b
00000040: 0ad7 233c 0ad7 233c 0ad7 233c 0ad7 233c
00000050: 948d b73d 0d90 cb3d 97f0 e43d ae77 f33d
00000060: 0ad7 233c 0e5f af3d 0fb3 263d 1759 ea3d
00000070: 0ad7 233c e51b 063e 0ad7 233c 0ad7 233c
00000080: 7419 d03d 8113 d23d fd98 e13d af3b 013e
00000090: 0d0b d33d 031f bf3d a1ea f23d 2952 df3d
000000a0: bb99 c83d 0ad7 233c 0ad7 233c 98d7 613d
000000b0: 0962 bd3d 5ce1 0f3a 335b 40ba a629 a03d
000000c0: 30d5 f73d 58b3 7c3d c06d d03d ba74 963d
000000d0: 4c9a ff3d 354f f33d f0c3 cb3d 3a34 bd39
000000e0: a6e7 b53d 0ad7 233c 0ad7 233c 5493 d73d
000000f0: 0ad7 233c ca2a 0b3e bc61 133e 9565 643d
00000100: 9ed9 163d 5524 473d 12d8 0c3e 5c71 2d3d
00000110: 305d d23d 0ad7 233c 7498 843b dd88 b83d
00000120: 4ed3 b33d 0ca5 263d 69c9 083e a7e3 de3d
00000130: 8978 c43d a334 d23d c3ed d63d 0ad7 233c
00000140: cd14 ebbb 10a2 9439 707f 573d 08bb 8b3d
00000150: 5910 f63d 8687 d43d abbd 003e ea62 083e
00000160: 21e6 813d ee66 b83d 0ad7 233c c50d 623d
00000170: 4859 a33d 0ad7 233c 1a6b e83d ee4f d13d
00000180: 0ad7 233c 5a5b 3c3d 342d b93d b918 0cbb
00000190: 2563 6d3d 1c57 a53d 0ad7 233c 0ad7 233c
000001a0: eecf 933d 0da5 ad3d 2a75 153c a298 053e
000001b0: 3348 c23d 1d9c bc3d 1561 4fbc 41d8 963d
000001c0: 06e3 af3d bdc5 da3d fe07 dd3c 0ad7 233c
000001d0: 0a61 9a3b ca3c f23d 0ad7 233c 0ad7 233c
000001e0: a549 473b a92a a43d e2f9 c83c e8b8 863d
000001f0: 2fc0 403d c939 963d e1b2 be3d 34ad d13d
0.032348156 -0.008040911 0.11032707 0.05014539 0.10516715 0.09290747 0.09305317 -0.0053050467
0.12825353 0.12063865 0.01 0.039369877 0.01 0.044743493 -0.006234054 0.0037323392
0.01 0.01 0.01 0.01 0.08962551 0.09939585 0.11178701 0.118880615
0.01 0.08563052 0.040698107 0.11442774 0.01 0.13096578 0.01 0.01
0.10161105 0.10257626 0.11015508 0.12620424 0.10304842 0.09332087 0.11861158 0.10904343
0.09794947 0.01 0.01 0.055137247 0.09247214 0.0005488598 -0.00073378085 0.07820444
0.12101209 0.061694473 0.10177183 0.073464826 0.12480602 0.11880342 0.099494815 0.000360878
0.08882074 0.01 0.01 0.105261475 0.01 0.13590541 0.14392751 0.05576094
0.03682863 0.048618633 0.137543 0.042344436 0.1027168 0.01 0.004046494 0.090104796
0.087805375 0.040684745 0.13358082 0.10883265 0.09593303 0.10263946 0.10494568 0.01
-0.0071741105 0.00028349506 0.05261177 0.06822783 0.12014837 0.103774115 0.12572353 0.13318983
0.06342722 0.09004007 0.01 0.055188913 0.079760134 0.01 0.11348553 0.102203235
0.01 0.045985557 0.09041825 -0.002137704 0.05795588 0.080732554 0.01 0.01
0.07217394 0.084787466 0.009122172 0.13046506 0.09486427 0.09209464 -0.0126574235 0.07365466
0.08588223 0.10682247 0.02698135 0.01 0.004711275 0.11828001 0.01 0.01
0.0030408886 0.08015949 0.024533216 0.06578237 0.04705828 0.073352404 0.09311462 0.10238114

model.4.weight f4 [128, 128]
00000000: dc7f d63d 8052 743b 722e 61be 7c6b 5abe
00000010: e6af c13d c552 70bd 81b3 453d 84df c73d
00000020: 99ea 27be f04a 21be 5856 0bbe 9272 7e3d
00000030: e620 05be f865 e4bd 92c3 8d3b c08c 72bd
00000040: 89db e53d f10d 5c3e 2e8e a9bd dd55 d6bd
00000050: 1270 23bc 333f b53d e31e 9cbe c258 dc3d
00000060: e2c0 0fbe c082 8dbc 603d 943d b130 88bd
00000070: 6b0e babd f237 1f3e b808 85bd 8b40 ba3e
00000080: 1815 e93d f440 edbd 55ae 573d ea7b b03d
00000090: ff3a 883c a93d 7a3d 4192 a93d eb2f a9bd
000000a0: bced ba3b e3ed d7bc 009b a4be c0bf 173e
000000b0: 45b2 8c3d 369f 67be 72f9 e4bd 295d 9bbd
000000c0: 8d0d 26bc 0c27 4fbe 3c0a 203e 43a4 3b3d
000000d0: ae1b a8bc 75bb f5bd 0a62 9f3d 2e9f c03d
000000e0: 0284 393d 8257 febd 6541 b33d 7169 1b3d
000000f0: 8fb3 9bbd d7d1 293e 460f 0ebe 364b 3b3d
00000100: dcd6 943d bee4 04be e9a8 babd 718d c4bd
00000110: 9ffd 43bd 5508 c63c bd62 333e 60e5 bebd
00000120: 80c2 d63c c39e 41bd fc17 1b3d 6ec7 083d
00000130: f495 0f3e f2a4 a0bd 0a7c 063e 01cc 453d
00000140: ace1 443e 89a4 3f3e d3ad 6b3c ac05 beba
00000150: 3a2b bdbc 9fd1 afbd 610e 3ebe 4295 f0bd
00000160: 7b40 55bd bf3c c7bc 4582 06bd b895 5dbe
00000170: 9ca3 f13b f1c0 2e3d 42b7 a33c 0b50 fbbd
00000180: 9ef4 e6bd e99a 2dbe 1d02 903d a93e 6c3d
00000190: 23dc 6a3d 4ea4 55bd 84c5 4bbd 386e 243d
000001a0: aa88 dbbd 8257 c0bd 6121 34be ac92 8b3d
000001b0: 9c2d 76bd 2e41 b1be 3825 4b3d 194f ae3d
000001c0: a162 e7bd 4ab7 0cbe 883b 85bd cf1d e6bd
000001d0: 5c9f 023e 4ed5 013e a7c5 b6bd 7076 ae3d
000001e0: ba7d 2e3e 8487 37be 487f ac3d 53b3 84bd
000001f0: 7475 de3d b8eb 753d 5a1c a0bc 0aa5 313d
00000200: 5222 163e 819b 443d 3ff4 1abd 3a31 2e3e
00000210: c5cf 2c3d f08b 89be b89d 9ebd a363 903b
00000220: fa17 a53c a027 8c3d 7500 963e 5ecb 43be
00000230: cfac 413d ddf6 b3bd dbf1 863e 7748 e9bd
00000240: 6e41 73be c3c9 e93d 03f9 fbbd 7919 1ebe
00000250: 1664 a23b 4d74 85be 4541 093d 795c 103e
00000260: beeb 373e 49ad 943e 4d19 83bc 8586 71bd
00000270: 806f 8dbd 4804 9a3e 7534 4cbe 5413 983d
00000280: fe4d 79bd 6c08 b0bc 93da d53d 6a76 893d
00000290: 7099 28be aea5 61be da4a 113e c896 093d
000002a0: 7238 3e3d 7710 9fbd 0915 1bbe 7bfd 263c
000002b0: 0a60 efbd 4e63 8fbc 2e94 0bbe f86c ab3c
000002c0: 0a19 0e3e 9c30 bb3e e711 c1be 5cf0 dabb
000002d0: cef8 b43e a54b 9c3d 7b7a 3c3e 428e e43d
000002e0: 148d 133e db5f 383b 8e5e 383d 09be 66be
000002f0: afbd b1bd e50a e83b 8498 033d abfd 4cbd
00000300: 0004 973d fd83 f63a 53b7 033e 43a8 763e
00000310: 9b79 963d 1ec0 253e 241c 3abe 2b5a 59bd
00000320: 525c 2fbe 8949 35bd b24a 9a3e 89eb a5bd
00000330: 072e 5b3e e3a0 623e 1cdd 18be 6706 a03d
00000340: fa55 fbbd 353f 0b3e 670c c23d 1a4c 81be
00000350: 0805 4d3e 90ed 54be 2e8a 753e 4f4f 1c3e
00000360: bb0b ddbc 2d9f 913e 51a6 8b3d 6ddd 1a3e
00000370: 68c0 ccbd 9977 22be 859f f73d 5a61 07be
00000380: 0c7b 443d 76e3 a23e 6235 95be c14a ee3d
00000390: 4d63 2a3e 6ada 7a3d e0cf b73b 2dab 0a3d
000003a0: 7ab1 423e d1f0 9a3e 91a9 2f3e a92f e33d
000003b0: fc90 543e b7b0 0abd b220 8a3e 81fc 233e
000003c0: 78b1 a73d b8f6 49be 4ef7 923e c50e ae3d
000003d0: 0a4a 3a3e e72f 3abe edee e7bb f1d0 8f3d
000003e0: fd0b 0dbe c4b0 9a3d 94af c4bb e907 8a3d
000003f0: c429 113e 2264 a23e b4d0 8e3d c4c8 043e
0.10473606 0.003728062 -0.21990374 -0.21330065 0.09457378 -0.058672685 0.04826689 0.09759429
-0.16398086 -0.15751243 -0.13607156 0.06212098 -0.13000831 -0.111522615 0.0043262923 -0.05921626
0.11223514 0.21489693 -0.08279072 -0.10465596 -0.00997545 0.08849945 -0.30492315 0.10759117
-0.14038423 -0.01727426 0.07238269 -0.06649912 -0.09084781 0.15548685 -0.064958036 0.36377367
0.113809764 -0.115846545 0.05265649 0.08617385 0.016629694 0.06109396 0.08279849 -0.08261093
0.0057046097 -0.02635855 -0.32149506 0.1481924 0.0686994 -0.22619328 -0.111803904 -0.07586128
-0.010135067 -0.20229739 0.15628904 0.04581095 -0.020521011 -0.11998645 0.07782371 0.09405361
0.045291908 -0.124190345 0.087527074 0.037942354 -0.076026075 0.16583954 -0.13873014 0.045726024
0.07267544 -0.12977883 -0.09114248 -0.0959729 -0.047849294 0.024173895 0.17518134 -0.093210936
0.026215792 -0.047270548 0.03786467 0.033393316 0.14022046 -0.07843961 0.13133255 0.048290256
0.19226712 0.18715109 0.014384705 -0.001449754 -0.023091901 -0.08584904 -0.18560173 -0.11747219
-0.052063446 -0.024320958 -0.03283908 -0.21639144 0.00737424 0.042664472 0.019984845 -0.12271126
-0.11277126 -0.16953625 0.07031653 0.057676945 0.057338845 -0.052158646 -0.049748912 0.040144175
-0.10719426 -0.09391691 -0.17590858 0.06815085 -0.06010209 -0.3462004 0.04959604 0.085111804
-0.11298109 -0.13741794 -0.06505495 -0.11236154 0.12756103 0.12679026 -0.08924418 0.08518684
0.17040148 -0.17922789 0.084227145 -0.06479516 0.10862246 0.060039252 -0.01954477 0.043370284
0.1466153 0.047999863 -0.037830587 0.17010966 0.042190332 -0.26864576 -0.07744926 0.004406409
0.020153034 0.06843495 0.29297224 -0.19120547 0.047283944 -0.0878732 0.26356396 -0.11390775
-0.23755428 0.11415436 -0.123033546 -0.15439405 0.004955779 -0.26065293 0.03350951 0.14097776
0.17961022 0.29038456 -0.016003275 -0.05896618 -0.069060326 0.3008139 -0.19941886 0.074255615
-0.060865395 -0.02148839 0.1044208 0.06712039 -0.16464782 -0.22035858 0.1418871 0.03359106
0.04644055 -0.07766812 -0.15144743 0.01019227 -0.1168824 -0.017503407 -0.13630745 0.020925984
0.13876739 0.36560524 -0.3770897 -0.006681485 0.35346073 0.076316155 0.18406098 0.11159946
0.14409286 0.0028133306 0.04501205 -0.2253343 -0.086787574 0.007081377 0.032127872 -0.050046604
0.0737381 0.0018807646 0.12862901 0.24087624 0.07347413 0.16186568 -0.18174797 -0.053064507
-0.17125061 -0.04425958 0.30135113 -0.081015654 0.21404277 0.22131686 -0.14928097 0.07813721
-0.12272258 0.1359833 0.09475022 -0.25253373 0.2002145 -0.20793748 0.23978493 0.15264629
-0.026983133 0.28441754 0.06818832 0.1512353 -0.09997636 -0.15865935 0.12090973 -0.1322073
0.04796891 0.31814164 -0.2914229 0.11635352 0.16639443 0.061243452 0.0056094974 0.033854652
0.19013014 0.30261853 0.17154528 0.11093075 0.20758432 -0.033859935 0.2697807 0.16014291
0.08188146 -0.19723022 0.28704304 0.08498911 0.18192306 -0.18182336 -0.0070780427 0.07022274
-0.13774104 0.075532466 -0.006002376 0.0673979 0.14176089 0.3171702 0.06973401 0.12967211

model.4.bias f4 [128]
00000000: ad60 c53b c0ee 9c3d 19c8 dd3d 5a2d d83d
00000010: 6593 db3d 6465 fd3d 0ad7 233c cc90 4dba
00000020: b3f0 f03d 19fe c43d 1310 973d e275 e33c
00000030: 74b8 a83d b38e df3d 0ad7 233c 777b a03d
00000040: 36f6 083e 049f da3d 6912 b13d 79b2 a93d
00000050: 280f c13d f3a3 1d3c 7248 553b d6b1 093d
00000060: 1293 ac3d c137 b53d 0ad7 233c c5f6 453d
00000070: 524b 8e3c 0ad7 233c 1f97 383c f2fc 643d
00000080: e2dd 663d 0ad7 233c 0ad7 233c a0ac b43d
00000090: ac4b 5a3d 8b1d 033b 0ad7 233c 0ad7 233c
000000a0: b646 ab3d 0ad7 233c 0d05 c53d 489d 853b
000000b0: 0d28 c13d 0ad7 233c 0ad7 233c 4066 3b3a
000000c0: 18a1 fa3d eca2 18bb 3b05 c53d a85a 1f3d
000000d0: 0ad7 233c 0eb7 343d 552b bd3d e4db a83d
000000e0: 990a f03d c3e7 b13d 9552 a1bb b3ed ea3d
000000f0: 62aa 05bb 2c1c c43d 0ad7 233c 99cb d43b
00000100: 0ad7 233c f106 ce3d 3542 df3d 0ad7 233c
00000110: e538 b43d 0ad7 233c 8fa1 d53d c565 223c
00000120: 3b6d b93d f53c e43b 49d2 0b3b 0ad7 233c
00000130: 0ad7 233c c2c0 f43d d339 e43b ccec 9f3d
00000140: 3c59 323c e38f 653d 594d b23d 3fa9 d83d
00000150: 8eef c53d 2545 db3d 92f3 c13d dc86 933d
00000160: 67b2 563d ef49 b53d fe88 553d 37c9 ed3d
00000170: 0ad7 233c 0ad7 233c 4a85 da3d 72d4 6e3d
00000180: df1e bf3d 2906 3b3b a951 ac3d f7c3 d03d
00000190: 90a3 da3d 4002 7f3b 9401 d4bb 00b1 bf3d
000001a0: 67cd d43d 4908 cbb9 d799 c83d d008 923d
000001b0: 1dbf d83a 4b58 a43d bdf6 e03c 2bd7 da3d
000001c0: 8be5 aa3d b55b 013d 0ad7 233c 51f1 5c3d
000001d0: f85f d93d af4e bdbb eb75 d33d 9e24 7dbb
000001e0: 0827 ea3d ad64 f93d 0ad7 233c 9326 c93d
000001f0: cb23 b93d 4008 be3d 2957 a33d f517 953d
0.0060234875 0.076627254 0.10829181 0.10555525 0.10721473 0.12372854 0.01 -0.0007841706
0.1176466 0.09618778 0.07376113 0.027766172 0.08238307 0.109158896 0.01 0.07836049
0.13375172 0.10674861 0.086460896 0.08285994 0.09426719 0.009621608 0.0032544401 0.033616863
0.08426489 0.08848525 0.01 0.04833104 0.0173699 0.01 0.011266499 0.05590529
0.056363948 0.01 0.01 0.08821988 0.053294823 0.0020006623 0.01 0.01
0.083630964 0.01 0.09620104 0.0040775873 0.09431467 0.01 0.01 0.00071487203
0.122377574 -0.0023290468 0.09620138 0.038904816 0.01 0.044119887 0.092367806 0.08245066
0.11720771 0.08686783 -0.0049231746 0.11471119 -0.0020395746 0.09575686 0.01 0.0064939973
0.01 0.10059918 0.109013 0.01 0.08799914 0.01 0.104312055 0.009911959
0.09054037 0.0069652745 0.0021335057 0.01 0.01 0.11950828 0.006964901 0.07808837
0.010885533 0.056045424 0.08706159 0.10579156 0.09664832 0.10706548 0.094702855 0.07203457
0.05241623 0.08851992 0.0521326 0.11610644 0.01 0.01 0.10669954 0.058308072
0.0933206 0.0028537607 0.08414013 0.10193627 0.10675728 0.0038911253 -0.0064699147 0.09359932
0.1039074 -0.0003872535 0.097949676 0.07130587 0.0016536448 0.08024653 0.027461404 0.10685571
0.08344563 0.0315816 0.01 0.053941075 0.10614008 -0.005777202 0.103252254 -0.0038626562
0.11433226 0.121774055 0.01 0.098218106 0.0904003 0.09278917 0.07975609 0.0727996

model.6.weight f4 [128, 128]
00000000: 177f 343d 9480 d93c ae64 19bd c98b 33bb
00000010: a677 8ebd b68c 9b3d 867f fd3d b8ee b3bd
00000020: 08a8 f3b9 9b87 81be 8753 38be dcc3 993e
00000030: 368a 233e 6631 ebbd 81b1 513d 6c8b 293e
00000040: ac9e 723e 8015 3d3e 9907 a1bd 660c 803e
00000050: 31ee d0bc 7b78 433e a327 a03d ce50 79bd
00000060: 4a01 4b3e 9ffb 24bd 92ff 6c3e 541f 363e
00000070: 98cb 703e e1e9 d53d 2e71 483e 2e34 5e3d
00000080: c754 353e 5227 1d3c ebe3 eb3d a16e 5c3e
00000090: 72e4 a53d 4f71 2fbe 72a9 c8bc 2819 483e
000000a0: 2369 0a3e d87f 18bd a41d 16bb 8f28 713d
000000b0: c637 5cbe 333f 68bc d80e a33d 5602 c4bc
000000c0: 8f55 973e f23b 38bd 7f77 5d3d 992e 353e
000000d0: 753b 8c3d b37f 9f3d d6cf afbd 339e 12be
000000e0: ceb8 c43e fe7d 49be 30a6 60bd ecd5 78bd
000000f0: 3aac b83d aa63 883d 3a73 093e e530 4abe
00000100: d5b8 eebc 8d8b 593e 0aa0 67be 6305 22be
00000110: c335 ab3e 9702 85bc b58a a33e 1df0 12be
00000120: 916b 2abe a572 9dbe 5598 003e 51a1 d4bd
00000130: 2c0e c9bc be70 473e ddad da3d 1352 a73d
00000140: 1f8a 0dbe f22c f33d 694e 813e 13ba 30bd
00000150: 5708 af3d bebb a53e 1b61 51be 185f ac3d
00000160: 6ee1 f0bb 4c51 a33b 16da 713e 2f2b 873e
00000170: 9dfb 66bd cb8b fd3d 1f89 77bd 8cc2 193e
00000180: 8264 5f3d aa09 98be f463 b13c eef1 32be
00000190: d748 953e df0f 383d 5f41 02bd 6e8d 7b3e
000001a0: d0da 833d d4e8 633d 3980 e3bd 7069 073e
000001b0: d716 093e 783a e4bd 6c96 b83e 2f18 8bbd
000001c0: fe1c a33e dd68 a33e 1418 45be 5918 843e
000001d0: f250 0e3d 29e9 e1bc 0866 1f3d 6ad4 1dbd
000001e0: 5f09 28be d215 f13d fc62 0a3e afbf 413e
000001f0: 9ac5 883e d886 02be c5bb 673e 46c2 f73d
00000200: d50e 08be dbec bebc 1f38 2c3d 1a76 a03d
00000210: aad8 d33d 237c 1abc a4e3 8dbe 0908 813d
00000220: da7d 9cbc 6185 d93d 02ca d83e b2d2 12be
00000230: 0b6a 84bd 60ae 88bd ad51 4abd c278 a33d
00000240: 5a2a e43d fcb5 873c 5a5e e53d 9e89 30be
00000250: bf90 95bd 04b3 953d 9f7e 3dbe 1c6e 35bd
00000260: 7a01 103c d390 423e e0cf a73d e022 8fbe
00000270: 788a b9bd 91fd aa3d 9bc0 97bd 5ea8 c2bd
00000280: 87f1 043d 9db5 1abe dc59 d9bd 4a97 7eb9
00000290: 5163 d9bc 693b c43c be2b 483d 5911 163d
000002a0: 8f6e 613e 9a34 0cbe 97ab 073e 8193 dcbd
000002b0: 2772 253d a93e 34be c39a 0bbe 6735 543e
000002c0: aa90 c83d 1bfd 9abe 897f 323d b464 043e
000002d0: 6b68 aebd 1e46 48be ed3f 433d bd3f c93d
000002e0: 3998 eabc 7aa0 c23e eac0 6e3e 2520 dc3c
000002f0: 0341 dc3d d780 b43d 145e bf3c 5228 cdbd
00000300: 2172 19be e66f 59bd 9c1d 2f3e d95b b1bc
00000310: 8e8a fcbc cf29 e1bd 4088 2b3d 55f7 cbbe
00000320: 7dab fa3d e2c2 fc3d d0a5 0a3e d696 68bc
00000330: 7088 aa3c c1da bd3d 1b9b 95be 4911 87bc
00000340: f76a 293e 5599 a53d ba43 ae3d 2377 e43d
00000350: fe08 763e f38b 893d 5e1e fbba 87b2 e7bd
00000360: 35a0 663c 5fcb a63e 96f0 b4bb c1a2 143e
00000370: 4462 353d a664 b63d e558 3a3e 92af b53d
00000380: da5c 6e3d 0493 79bc 1909 89bd 0bca 533e
00000390: 0d8b 54be 6f39 1c3e b384 19be e841 c53c
000003a0: 46df f3bb 8378 4ebd 4391 1bbd c645 2d3d
000003b0: 1022 473d 4129 953c 82e1 9cbe 5364 f93d
000003c0: 1f34 c8bc 160b 90bc 221c 303e 6abb 3e3e
000003d0: 45c1 343e e059 5e3a db82 16be 416f 5e3e
000003e0: e2f8 923d ccbf 7a3e 8726 553d 8bba 033e
000003f0: 88be dd3d 95b5 29bd e2c6 973d 7e33 2d3d
0.044066515 0.026550569 -0.03744953 -0.002739655 -0.06956415 0.07595198 0.12377839 -0.08785766
-0.00046473765 -0.2529877 -0.18000613 0.3003224 0.15970692 -0.114840314 0.05119467 0.16557091
0.23693341 0.18465233 -0.07862777 0.2500946 -0.025504204 0.19088928 0.0782006 -0.060868077
0.1982471 -0.040279027 0.23144367 0.17785388 0.23515165 0.104449995 0.19574425 0.05424898
0.17708121 0.009591894 0.11518081 0.21526577 0.08100213 -0.17133068 -0.02449486 0.19540846
0.13516669 -0.037231296 -0.002290585 0.05887657 -0.21505651 -0.014175224 0.079618156 -0.023926895
0.29557464 -0.044979043 0.05406904 0.17693557 0.06847278 0.077880286 -0.085845634 -0.1431816
0.38422245 -0.19676968 -0.05484599 -0.060750887 0.090172246 0.066596344 0.13422862 -0.19745214
-0.02914087 0.2124464 -0.22619644 -0.15822367 0.33439454 -0.016236586 0.31941763 -0.14349408
-0.16642596 -0.3075153 0.1255811 -0.10382331 -0.02454289 0.19476601 0.10677693 0.08169951
-0.1382222 0.11873807 0.25255135 -0.043146204 0.085465126 0.32369798 -0.20447199 0.08416575
-0.007351092 0.0049840566 0.2361835 0.26400134 -0.0563923 0.12380179 -0.060433503 0.1501562
0.05453921 -0.29694873 0.021654107 -0.17475101 0.29157135 0.04493701 -0.031800624 0.2456567
0.064382195 0.055641964 -0.11108441 0.13223815 0.13387619 -0.111439645 0.36052263 -0.06791722
0.31858057 0.31915942 -0.19247466 0.25799826 0.034745164 -0.027577 0.038915664 -0.038532652
-0.16409825 0.1177174 0.13514322 0.18920778 0.26713258 -0.12746751 0.22630222 0.120976016
-0.13286908 -0.0233063 0.04204571 0.07835026 0.1034406 -0.009429011 -0.2771274 0.06300361
-0.01910298 0.10621143 0.4234162 -0.14338186 -0.064655386 -0.066738844 -0.0493943 0.07982017
0.111408904 0.01656627 0.11199637 -0.17239997 -0.07302999 0.07309535 -0.18505333 -0.04429446
0.008789415 0.19000559 0.08193946 -0.27956295 -0.09059614 0.08349145 -0.074097835 -0.0950477
0.0324569 -0.15108342 -0.106128424 -0.00024279687 -0.026536616 0.02395411 0.04886984 0.036637638
0.22014831 -0.13691941 0.1324905 -0.10770322 0.040392067 -0.17602028 -0.13633256 0.20723496
0.097932175 -0.3027123 0.04357866 0.1292904 -0.0851601 -0.19557998 0.047668386 0.0982661
-0.028637039 0.3801306 0.23315778 0.026870796 0.107545875 0.08813637 0.02336029 -0.10017456
-0.14984943 -0.05308523 0.17101139 -0.021650242 -0.030827787 -0.109943025 0.041877985 -0.39837137
0.1223974 0.123418584 0.13539815 -0.014196118 0.020817012 0.092702396 -0.292199 -0.016487734
0.1654471 0.080858864 0.085090116 0.11155536 0.24026868 0.06716146 -0.001915883 -0.11313348
0.014076282 0.32577035 -0.005521844 0.1451521 0.044283167 0.08905916 0.18197973 0.08871378
0.05819402 -0.015232805 -0.06691188 0.20682542 -0.20756169 0.15256284 -0.14992027 0.024079278
-0.0074423878 -0.050407898 -0.03798033 0.04230287 0.04861647 0.018208148 -0.306408 0.121773385
-0.024438916 -0.017583411 0.17198232 0.1862618 0.17651851 0.00084820203 -0.14698355 0.21722127
0.07176377 0.24487227 0.052038696 0.12864129 0.108273566 -0.041432936 0.07410981 0.042285435

model.6.bias f4 [128]
00000000: 93f3 d23d 85c0 c43d a4df d53d 83d2 9b3d
00000010: e70d a53d 4ceb 1eba 0b21 ba39 c6ff 8d3d
00000020: dcde 473d ae06 b63d 0ad7 233c 92d7 8c3d
00000030: 19f7 b43d c79b 9e3d 9945 b93d 55f1 923d
00000040: 124c a93d b549 bf3d d650 b43d e9f5 653d
00000050: 7992 bc3d ffc4 af3d 0ad7 233c 86f0 da3d
00000060: 7ee6 a93d 8d6f a93b 493f 9f3d f462 413d
00000070: 603a b93d 0ad7 233c 0508 c73d 7679 543b
00000080: b104 4a3b 0ad7 233c 2d92 c339 e64a af3d
00000090: 1fde ad3d 0ad7 233c 5e89 483d 0ad7 233c
000000a0: aeb7 ae3d 0ad7 233c 78a5 c93d 0ad7 233c
000000b0: cbe1 45bb 1c26 b03b 204c a13d 0000 6f3d
000000c0: f736 bb3d 71ee d63d bdfb e73a 0ad7 233c
000000d0: 926f eb3c 4840 773d 0ad7 233c c2e7 febb
000000e0: 7a40 c63d ae5a b43d fc4a c83d 6079 b53d
000000f0: c6e5 ba3d 0bd5 a63d a534 a63d 6b64 bd3d
00000100: 52b6 cd3d 6f11 dbbb b924 03bc 5d7d 0a3d
00000110: d960 fabc 1741 ac3d 56d0 a13d dee6 d43d
00000120: f567 463d 501e 893d 3163 973d bd14 b63d
00000130: ca55 c23d 0ad7 233c 8c14 c43b 6d9c ef39
00000140: d882 73ba 5c98 6c3d ac19 a13d c8be ca3d
00000150: b511 17b9 0ad7 233c d690 c03d 1000 943d
00000160: 379c 943d 0ad7 233c 0ad7 233c cf4b a23d
00000170: b22c b43a cb21 d53d f9b9 473d e4cc 25bc
00000180: c8bb b43d f380 da3d 4551 863d 5116 003d
00000190: 0ad7 233c 465b bf39 0ad7 233c 1811 a83d
000001a0: e954 0e3c dd73 a9bc 230d e63d 0ad7 233c
000001b0: 48dd 7f3d da07 9c3d 9447 963d 0ad7 233c
000001c0: 287c a33d 4026 673a d499 3b3b afff aa3d
000001d0: 6c37 b63d 1a8c e7b7 4f86 ba3d 4c73 a03d
000001e0: 4c6f b13d 685c 973d 0ad7 233c 681e bb3d
000001f0: c120 613d de7c 963d f77a c13d 4eb7 6e3b
0.10300364 0.09607033 0.10443047 0.07608511 0.08059292 -0.00060622836 0.00035501304 0.069335505
0.04879652 0.08887993 0.01 0.06877054 0.08836193 0.07744556 0.09046478 0.07174937
0.082664624 0.093402304 0.08804481 0.05614272 0.09207625 0.08582496 0.01 0.106904075
0.08295916 0.0051707686 0.077757426 0.04721351 0.09044337 0.01 0.097183265 0.003242103
0.003082555 0.01 0.00037302208 0.085592076 0.08489632 0.01 0.04895913 0.01
0.08531128 0.01 0.09846014 0.01 -0.0030194398 0.0053756367 0.07875848 0.05834961
0.09141343 0.10494698 0.0017698925 0.01 0.028739724 0.060364038 0.01 -0.0077790925
0.09680267 0.08806358 0.09779927 0.08861041 0.09125857 0.081461035 0.0811551 0.09247669
0.100445405 -0.006685428 -0.008004361 0.033810962 -0.030563759 0.084108524 0.07901065 0.10395597
0.048438985 0.06695235 0.07391966 0.08890674 0.09489019 0.01 0.0059838947 0.0004570218
-0.00092892116 0.05776249 0.07866225 0.0989967 -0.00014407079 0.01 0.09402625 0.072265744
0.07256358 0.01 0.01 0.079246156 0.001374623 0.10406836 0.04876134 -0.0101196505
0.08824879 0.10669126 0.0655847 0.031271283 0.01 0.00036498363 0.01 0.082063854
0.008687236 -0.02068513 0.112329744 0.01 0.06246689 0.07618685 0.07337871 0.01
0.07982665 0.00088176504 0.0028625624 0.08349549 0.0889729 -2.7602586e-05 0.091076486 0.07834491
0.08663806 0.07390672 0.01 0.09136659 0.054962877 0.07348035 0.09447282 0.0036425176

model.8.weight f4 [3, 128]
00000000: 604a 0cbe 22ef 863e e015 9ebe 1959 b4be
00000010: 3d92 0f3e a135 243c a8dc 5cbd f7df 0bbe
00000020: ced8 5b3e 1af1 c2be 5b58 da3e 6487 893e
00000030: fe12 bc3e ee3c 66be cd84 c5bd 0e1f 0f3e
00000040: c358 953e bedb 93be 543d 0d3e 0981 c9be
00000050: c055 623c b402 aabe ad4b cfbd 9791 3bbe
00000060: a1c4 43be f8ee 06be cd4b 58be 3512 223c
00000070: 6e13 67be 03a2 04bd 531a 85be 57b8 16bd
00000080: a8ae 00bd 404d c73d 7fe4 74bd eeb6 1cbe
00000090: 7d72 333e eb5a a4be b618 a3be db01 c23d
000000a0: 6aa0 62be 8cff a9bd 1bba dfbd ac86 adbd
000000b0: cca5 0e3e e19f 613d 13f4 923e d3dc 52be
000000c0: e70d 94bd f46f 783e 92a2 943d 57b4 973d
000000d0: 7ad2 e9bd 33f8 94be 1fd0 6cbe 91ae 34be
000000e0: ae3f 803e 72e1 473e 9b0a 4d3e 5614 ee3d
000000f0: 8838 143e 82bb 6cbe 23a8 24bd 095b 3bbe
00000100: ff11 5dbe a62c f83d 5465 abbd 3e22 c73d
00000110: 011d 383d 0408 943e 24c4 2fbd 13fb bdbe
00000120: 38e2 1e3e 3fb3 143e eb81 8fbe ad6f 95be
00000130: 040d 0ebd 36c1 29bd 0742 053e 5ea7 ce3d
00000140: 6caa 5ebd 7e4c f4bd 2dbe 05be 1ec6 b7bd
00000150: 02f1 953b 891e df3b 2a82 773d bc59 a03e
00000160: 7905 51be 949e 223d 1aba 42be da42 69be
00000170: e52b 173e acb8 5fbe 21b6 4c3c c901 0dbe
00000180: b31e 80be ffc6 d13e 933d fd3d 1180 483e
00000190: cb45 1abc fb5a 2ebd 3cf2 193b 5d51 82be
000001a0: dc51 a2bd 4ba9 653e 6544 02be b4b7 02be
000001b0: 8edb 31bd a37c 7abe 0bb8 c6bd 23be e6bc
000001c0: 6ad8 f23c 1a4f f83d ff4c aa3e 2837 60be
000001d0: ce79 7dbd 832a a6bd edcc 353e 602d 65be
000001e0: b136 a43e 4bcc 22be be0f 25be 3a99 8bbe
000001f0: ea8d 86bd 9620 a1be aa02 d93d 1189 453d
00000200: aa62 dabd 9512 1d3e 5aae 593c c961 a7bd
00000210: 6bf8 4bbd 955d 3239 ad31 d33d 0b5d b0be
00000220: 7352 8f3e ed12 fdb8 a953 0abd 8c73 b7bd
00000230: a34d 67b9 0350 c73d c173 fb3d 52a7 b33d
00000240: dfba 223e 0d04 b4bd b8c6 00be eb90 e9bd
00000250: b857 a9bd 813e cabd 449e b8bd a36d f43d
00000260: fa5b 0d3e f928 ca3d 74a5 9b3d 8b2a 533e
00000270: f8c2 58be 4d28 7dbd d583 6abd 564c 81bc
00000280: ebd7 f1b8 30dd 273e a425 3fbb cdac adbe
00000290: d130 61be 295f 4c3d 7ce4 2b3e d0ad 203b
000002a0: cfed 3abc 33c1 20be 774c c73c 75a0 3d3d
000002b0: 7f22 143d 5db0 e53d 8740 9fbd 2421 ca3d
000002c0: 00bf 60bd cc5b 96bd 8037 073d 1f81 e0bd
000002d0: 20d6 223d 3d3c 233e 89a9 633e 2532 1cbd
000002e0: 2ffd 253e a043 3cbe 255b 0dbe ffd7 33be
000002f0: e013 6ebd 2b6f b83e be36 7e3d 14d0 f6bc
00000300: d488 ef3c 1600 323e 425d 9abe 74f4 8a3d
00000310: eb36 cebd 53de 5abc 3f76 323d ef03 1d3c
00000320: 2fb9 963d 9c99 de3d cff4 b6bc fd95 64be
00000330: cea9 a0bb 0981 653d f43d f03c d87d 30bc
00000340: 6643 9cbb 104f a93e 35cd 203e 4726 823d
00000350: 4fa5 3fbc 95aa 37be 9d9e b53d 9da9 e8bc
00000360: f222 f73d 4998 c33c b709 89bd 8b97 b53c
00000370: 537e 533e baf7 5d3d ec95 02be d86e 583d
00000380: 06f3 ecbd 7613 11bd 09b5 2e3e 971a 3b3e
00000390: d9a7 95bd e49a cc3d 25ac 5a3d b7ba dbbd
000003a0: b7c6 1fba cba5 b4bc 9303 10bc f6b7 99bd
000003b0: 0da8 6a3e e40f 31be 7e44 e73d 74b0 4c3d
000003c0: f633 0dbd f37d fc3d e14a 1e3d 9845 e4bb
000003d0: 85e5 83be f82e 1bbe ebef 0dbd d5d8 af3d
000003e0: 8ea2 2a3d c028 b3be 7460 05be 2496 83be
000003f0: d0d7 a4be 14ba 7a3d 1b08 40be d22c ec3d
-0.13700247 0.2635432 -0.30876064 -0.35224226 0.14020629 0.010022552 -0.05392137 -0.13659655
0.21469423 -0.3807457 0.42645535 0.26861107 0.3673324 -0.2248418 -0.0964447 0.1397669
0.29169282 -0.28878587 0.13792926 -0.3935626 0.01381439 -0.33205187 -0.10121856 -0.18317257
-0.19117977 -0.13177097 -0.21122666 0.009892036 -0.22566006 -0.03238107 -0.25996646 -0.036796894
-0.031416565 0.09731531 -0.059788223 -0.15304157 0.17524143 -0.32100615 -0.3185479 0.0947301
-0.22131506 -0.08300695 -0.10924169 -0.08472952 0.13930434 0.055084113 0.2870184 -0.2059205
-0.07229214 0.24261457 0.0725757 0.07407444 -0.11417098 -0.2909561 -0.23126267 -0.17644717
0.25048584 0.19519594 0.20023577 0.116249725 0.1447469 -0.23118404 -0.04019941 -0.18296446
-0.21588896 0.12117891 -0.08368936 0.09723328 0.044949535 0.28912365 -0.042911664 -0.37105617
0.15515983 0.14521502 -0.28028807 -0.29186764 -0.03468038 -0.041444026 0.13013469 0.100905165
-0.054361746 -0.11928652 -0.13060828 -0.08973335 0.0045758495 0.00680906 0.06042687 0.31318462
-0.20412244 0.039702013 -0.19016305 -0.22779408 0.14762838 -0.2184779 0.012494595 -0.13770212
-0.25023422 0.40972134 0.1236526 0.19580103 -0.009416054 -0.042567234 0.002349033 -0.254527
-0.0792577 0.22427861 -0.12721403 -0.1276539 -0.043422274 -0.24461608 -0.09703072 -0.028166836
0.02964421 0.121244624 0.33261868 -0.2189604 -0.06188374 -0.08113577 0.17753954 -0.2238059
0.32072976 -0.15898244 -0.16119286 -0.2726534 -0.06570037 -0.31470174 0.10596211 0.04822642
-0.1066335 0.1533912 0.013286198 -0.08172948 -0.049797457 0.00017010265 0.10312209 -0.34445986
0.2799259 -0.00012067505 -0.03377119 -0.08957586 -0.00022058799 0.09732058 0.12277938 0.08772148
0.15891598 -0.08789835 -0.12575805 -0.11404594 -0.08268684 -0.09875203 -0.09014562 0.11934974
0.13804618 0.09871096 0.07599917 0.20621698 -0.21168125 -0.061806012 -0.05725463 -0.01578347
-0.000115319934 0.1639297 -0.0029166723 -0.339209 -0.21991278 0.04989544 0.16786379 0.0024517663
-0.011409237 -0.156987 0.024328453 0.046295602 0.03616571 0.11215279 -0.077759795 0.09869602
-0.05486965 -0.073417276 0.033011913 -0.10962128 0.039754987 0.15940948 0.22232641 -0.03813376
0.16209863 -0.18385172 -0.138043 -0.17562865 -0.058124423 0.36022314 0.062063925 -0.030128516
0.02924005 0.17382845 -0.30149275 0.06784907 -0.100690685 -0.01335867 0.0435698 0.009583457
0.0735954 0.108691424 -0.02233353 -0.22322841 -0.004903055 0.05603126 0.029326417 -0.010772191
-0.0047687767 0.33068132 0.1570328 0.06354957 -0.0116971275 -0.17936166 0.08868144 -0.02840119
0.12067212 0.023876326 -0.06691306 0.022166988 0.20653658 0.05419133 -0.12752503 0.052840084
-0.115697905 -0.03541895 0.17061247 0.18271862 -0.07307405 0.099904805 0.053386826 -0.107289724
-0.00060949795 -0.022051712 -0.008789915 -0.07505791 0.22915669 -0.17291218 0.11292361 0.049972966
-0.034473382 0.123287104 0.03864563 -0.006966304 -0.25761047 -0.15154636 -0.03465263 0.08586279
0.04165893 -0.34992027 -0.13025075 -0.25700486 -0.32195902 0.061212614 -0.18753092 0.11531986

model.8.bias f4 [3]
00000000: 845e 9dbd 5ae3 7ebc b4a3 af3d
-0.07684043 -0.0155571345 0.08576146
